content/post/crom/code/model_1.pth (torch, 410561 bytes, 11 tensors)

encoder_0.weight f4 [128, 501]
-3.8372995e-38 1.0350238e-06 1.7792617e-06 2.4073022e-06 2.9975643e-06 3.5761354e-06 4.1435824e-06 4.6846467e-06
5.175819e-06 5.621359e-06 6.1522287e-06 7.1437908e-06 5.6422095e-06 2.9339083e-06 1.0401543e-06 -5.715924e-07
-2.1247497e-06 -3.6632682e-06 -5.1419647e-06 -6.473583e-06 -7.549317e-06 -8.255425e-06 -8.49079e-06 -8.1402495e-06
-7.0690135e-06 -5.1598354e-06 -2.3886678e-06 1.3467163e-06 7.3271694e-06 7.621919e-06 9.042708e-06 1.0108446e-05
1.0423382e-05 1.004537e-05 9.119827e-06 7.752497e-06 5.901795e-06 2.7246676e-06 -2.0897733e-06 -4.9455803e-06
-7.6328415e-06 -1.037461e-05 -1.2996411e-05 -1.5123319e-05 -1.6322254e-05 -1.6414879e-05 -1.698494e-05 -1.1501287e-05
-5.1470215e-06 2.4787835e-07 5.307768e-06 9.7882585e-06 1.3540883e-05 1.6485908e-05 1.8542418e-05 1.9618623e-05
1.9675554e-05 1.8828401e-05 1.723534e-05 1.5026913e-05 1.2313887e-05 9.239976e-06 6.6668904e-06 2.0539562e-07
-4.3819614e-06 -8.623092e-06 -1.2761472e-05 -1.6669284e-05 -2.0152545e-05 -2.295487e-05 -2.4776218e-05 -2.5349631e-05
-2.453859e-05 -2.2222712e-05 -1.8235614e-05 -1.2421755e-05 -4.8609745e-06 3.9412976e-06 1.5594673e-05 2.0325244e-05
2.4001492e-05 2.5794629e-05 2.5263187e-05 2.2933498e-05 1.9435407e-05 1.5278976e-05 1.0710188e-05 5.3283097e-06
-3.886276e-06 -9.315091e-06 -1.4752359e-05 -2.0326903e-05 -2.557206e-05 -2.9681969e-05 -3.171391e-05 -3.0891828e-05
-2.7971242e-05 -1.9492098e-05 -8.069712e-06 2.5906415e-06 1.2422066e-05 2.0808402e-05 2.7508704e-05 3.2435335e-05
3.5492303e-05 3.658588e-05 3.575374e-05 3.3300665e-05 2.9635943e-05 2.5076035e-05 1.9732703e-05 1.3668176e-05
7.451429e-06 -1.6898229e-06 -9.12367e-06 -1.6215006e-05 -2.3007422e-05 -2.9424995e-05 -3.5174195e-05 -3.974383e-05
-4.2537547e-05 -4.3074284e-05 -4.1135827e-05 -3.664628e-05 -2.953583e-05 -1.9717389e-05 -7.3489455e-06 6.7200253e-06
2.271743e-05 3.2526565e-05 3.8737464e-05 4.1289484e-05 3.993746e-05 3.5649722e-05 2.9528957e-05 2.2497112e-05
1.511264e-05 7.1407308e-06 -5.4413613e-06 -1.3526969e-05 -2.1793558e-05 -3.0261204e-05 -3.8141756e-05 -4.422919e-05
-4.7103258e-05 -4.550292e-05 -3.975937e-05 -2.7523216e-05 -1.0968704e-05 4.920962e-06 1.970369e-05 3.2331776e-05
4.23746e-05 4.9560294e-05 5.3566095e-05 5.4153785e-05 5.1416937e-05 4.593945e-05 3.8673035e-05 3.0628355e-05
2.2495502e-05 1.4501977e-05 9.454377e-06 -2.005377e-06 -1.1189134e-05 -1.6119015e-05 -1.5643662e-05 -7.1663653e-06
-2.7861847e-06 -1.0621716e-07 1.2628087e-06 1.5098187e-06 1.0899396e-06 5.138029e-07 9.936923e-08 -1.8526907e-07
-9.3634014e-07 -3.47682e-06 -1.0527737e-05 -1.1686068e-05 -1.1430068e-05 -1.0780808e-05 -9.578215e-06 -7.942017e-06
-6.189007e-06 -4.557851e-06 -3.0589085e-06 -1.5741437e-06 9.04961e-07 2.716214e-06 4.5273373e-06 6.450378e-06
8.456312e-06 1.0223403e-05 1.1393114e-05 1.1972183e-05 1.2428249e-05 1.05870195e-05 2.9365578e-06 -2.731706e-07
-1.9640372e-06 -3.8101612e-06 -6.180092e-06 -8.882868e-06 -1.1452304e-05 -1.32842e-05 -1.39008225e-05 -1.3271378e-05
-1.1569609e-05 -9.042521e-06 -6.120432e-06 -3.6656666e-06 -2.1529552e-06 7.3126887e-07 2.6599573e-06 5.0853787e-06
7.919993e-06 1.0517671e-05 1.239923e-05 1.3230066e-05 1.2780216e-05 1.10594565e-05 8.5510665e-06 5.8769165e-06
3.5197193e-06 1.7197758e-06 2.857114e-07 -2.7578656e-06 -1.1496558e-05 -1.27619105e-05 -1.2804279e-05 -1.2816598e-05
-1.1797903e-05 -9.765737e-06 -7.3586743e-06 -5.216155e-06 -3.4490383e-06 -1.7532024e-06 1.1400894e-06 3.3361027e-06
5.515113e-06 8.125853e-06 1.0984894e-05 1.332319e-05 1.438816e-05 1.4197612e-05 1.4243526e-05 1.2306086e-05
3.2673574e-06 4.691817e-07 -1.0393924e-06 -3.2809498e-06 -6.190913e-06 -9.416216e-06 -1.2399909e-05 -1.44577725e-05
00000000: 26ec 5081 26eb 8a35 f7ce ee35 238d 2136
00000010: c329 4936 8afd 6f36 1a09 8b36 cf30 9d36
00000020: f2ab ad36 1b9f bc36 3e6f ce36 b2b4 ef36
00000030: 3652 bd36 29e4 4436 6e9b 8b35 886f 19b5
00000040: ec96 0eb6 78d6 75b6 2489 acb6 a837 d9b6
00000050: 2450 fdb6 c880 0ab7 aa73 0eb7 1b92 08b7
00000060: 5d32 edb6 a622 adb6 004d 20b6 d2c0 b435
00000070: e8db f536 c9bf ff36 23b6 1737 7297 2937
00000080: 16e0 2e37 8988 2837 5c01 1937 b910 0237
00000090: 0808 c636 6fd9 3636 083e 0cb6 36f2 a5b6
000000a0: ce0e 00b7 9c0e 2eb7 290b 5ab7 29ba 7db7
000000b0: c6eb 88b7 afb2 89b7 e27a 8eb7 a7f5 40b7
000000c0: 94b4 acb6 2414 8534 6119 b236 4038 2437
000000d0: a62d 6337 384b 8a37 8a8b 9b37 ac92 a437
000000e0: ee0c a537 aff1 9d37 9c94 9037 1a1c 7c37
000000f0: be97 4e37 6505 1b37 27b4 df36 b88a 5c34
00000100: c308 93b6 e6ab 10b7 1b1a 56b7 04d5 8bb7
00000110: 430d a9b7 358f c0b7 86d6 cfb7 eba5 d4b7
00000120: 39d8 cdb7 e96a bab7 aff8 98b7 0867 50b7
00000130: 741b a3b6 7d3f 8436 4ed1 8237 2180 aa37
00000140: d056 c937 8b61 d837 48ec d337 5061 c037
00000150: 3809 a337 5a2b 8037 e8af 3337 d5c9 b236
00000160: db66 82b6 0348 1cb7 e680 77b7 b183 aab7
00000170: 9583 d6b7 8bfd f8b7 8d04 05b8 d991 01b8
00000180: c9a3 eab7 f682 a3b7 2663 07b7 e2da 2d36
00000190: 5e68 5037 b48d ae37 7ec2 e637 2d0b 0838
000001a0: 92dd 1438 ca73 1938 49f6 1538 51ac 0b38
000001b0: b49a f837 605a d237 a887 a537 5e50 6537
000001c0: 4a07 fa36 dfcd e2b5 dd11 19b7 7605 88b7
000001d0: 1000 c1b7 b2d5 f6b7 0188 13b8 9db2 26b8
000001e0: 586a 32b8 a9aa 34b8 4289 2cb8 a5b4 19b8
000001f0: b6c3 f7b7 c566 a5b7 f696 f6b6 947c e136
00000200: 4f91 be37 226d 0838 097a 2238 3f2e 2d38
00000210: 8582 2738 9986 1538 f4b4 f737 2eb8 bc37
00000220: 4b8c 7d37 699a ef36 f094 b6b6 e4f1 62b7
00000230: 4fd1 b6b7 71d9 fdb7 66fa 1fb8 bb82 39b8
00000240: bd90 45b8 63da 3eb8 4cc3 26b8 a8e1 e6b7
00000250: 3a06 38b7 be1e a536 5a49 a537 fb9b 0738
00000260: 61bb 3138 f6de 4f38 28ac 6038 2f23 6338
00000270: 84a8 5738 1caf 4038 db34 2238 f276 0038
00000280: b9b4 bc37 844d 7337 3d9e 1e37 1d94 06b6
00000290: f7b8 3bb7 5237 87b7 823a 83b7 9c76 f0b6
000002a0: 4afa 3ab6 8019 e4b3 c77d a935 faa4 ca35
000002b0: 0a4a 9235 44ec 0935 d064 d533 60ee 46b4
000002c0: ce58 7bb5 5053 69b6 49a0 30b7 480f 44b7
000002d0: c5c3 3fb7 38df 34b7 1fb2 20b7 b43e 05b7
000002e0: 2aab cfb6 a4ef 98b6 a647 4db6 2a47 d3b5
000002f0: 72ec 7235 3448 3636 88e9 9736 5370 d836
00000300: 95df 0d37 2e85 2b37 0d25 3f37 22dc 4837
00000310: ec82 5037 e79e 3137 ae11 4536 48a8 92b4
00000320: e7cd 03b6 12b2 7fb6 965e cfb6 a107 15b7
00000330: 4523 40b7 34df 5eb7 9437 69b7 22a8 5eb7
00000340: 181b 42b7 55b5 17b7 1c5e cdb6 acff 75b6
00000350: 7d7b 10b6 6a4c 4435 b881 3236 12a3 aa36
00000360: 1ce0 0437 0e75 3037 4a06 5037 b3f6 5d37
00000370: 9c6a 5637 018c 3937 8d76 0f37 5432 c536
00000380: 5134 6c36 0cd3 e635 e063 9934 c513 39b6
00000390: 57e1 40b7 fd1b 56b7 f6d1 56b7 df06 57b7
000003a0: 9cef 45b7 85d7 23b7 88ea f6b6 6e06 afb6
000003b0: 0776 67b6 934f ebb5 2c05 9935 cfe1 5f36
000003c0: 760e b936 4654 0837 c34b 3837 aa86 5f37
000003d0: ad64 7137 4732 6e37 7af7 6e37 3d76 4e37
000003e0: c644 5b36 d8e3 fb34 4081 8bb5 4a2e 5cb6
000003f0: 8abb cfb6 57fa 1db7 3409 50b7 a98f 72b7

encoder_0.bias f4 [128]
0.0001011244 -9.2450675e-05 -0.00027875984 -0.00021240608 0.00013631488 -0.35471752 0.00034334208 0.00033808127
-0.35849708 -2.7531072e-05 -0.0002585659 0.00026572673 -0.00023883488 -0.00014877153 -1.8030452e-05 0.00025297463
0.00021294567 -0.00020981857 -0.00010015332 0.00013069509 -1.3874205e-05 -2.7130775e-06 -0.00026297403 -6.5704216e-06
-3.8149996e-05 1.1722846 -0.00016601515 -0.34707028 -0.00015429889 -0.00013033125 -0.35680273 1.7300172e-06
-0.00019614583 0.44913644 7.123035e-05 -7.863446e-06 -9.199002e-05 -0.00020414722 -7.9924794e-05 0.00020159858
-0.3564808 0.00025832112 -0.3579264 -0.35649747 0.00025696965 -0.35859683 6.348193e-05 -0.0002604654
-0.00013822482 -0.00011595638 4.4436188e-06 -0.00019001488 -0.00010532241 -0.35247773 0.00014840692 0.00021026886
-0.0001954727 -0.00011529719 -8.8155844e-05 0.00018396915 -0.000107424574 8.1682025e-05 -7.276597e-05 -0.35865104
-0.00017200186 0.0002721263 -0.35378197 -4.6656946e-06 -8.551459e-05 3.1371143e-05 5.2794403e-06 -0.0002492666
-0.3564564 0.00025037822 6.133015e-05 -4.0206096e-06 6.7558125e-05 0.00012152617 -0.0001423728 -0.00010054039
-0.00019406612 -0.00029427733 -0.35728362 -0.00024190804 0.00033363135 -0.00029260904 -9.971101e-05 0.000100808706
-1.0896779e-05 -0.35785726 -0.00010000446 -0.00024196976 -4.079374e-05 0.00021728643 -0.0002599547 -0.00020447288
9.611823e-05 0.00034737252 -0.00019316586 0.00020733144 0.00023433109 0.00019381043 -0.35712704 -0.00017137808
0.0002117166 -2.255256e-05 2.640775e-06 -0.00026598136 6.8241236e-05 -0.3546389 0.6265469 8.6321605e-05
9.762875e-05 -0.00023008834 -0.00024156804 0.0001820953 0.16024981 6.197854e-05 -8.795474e-06 1.3572129e-05
-7.467565e-05 9.5141884e-05 -3.342789e-05 -0.30402803 0.00015716457 0.00030117383 7.46924e-05 -0.00022625149
00000000: c012 d438 14e2 c1b8 8326 92b9 53b9 5eb9
00000010: bfef 0e39 899d b5be 9802 b439 8040 b139
00000020: ee8c b7be 87f2 e6b7 2190 87b9 3d51 8b39
00000030: c06f 7ab9 8eff 1bb9 1a40 97b7 aea1 8439
00000040: 2b4a 5f39 be02 5cb9 6709 d2b8 320b 0939
00000050: 42c5 68b7 5112 36b6 c7df 89b9 7e77 dcb6
00000060: 3f03 20b8 6c0d 963f 5a14 2eb9 32b3 b1be
00000070: 4bcb 21b9 87a9 08b9 d9ae b6be f032 e835
00000080: 7fac 4db9 36f5 e53e 8161 9538 3eed 03b7
00000090: c4ea c0b8 5a10 56b9 4c9d a7b8 3564 5339
000000a0: a784 b6be 466f 8739 2142 b7be d686 b6be
000000b0: e2b9 8639 019a b7be 9a21 8538 138f 88b9
000000c0: 71f0 10b9 9c2d f3b8 651a 9536 bb3e 47b9
000000d0: 8ae0 dcb8 f677 b4be ae9d 1b39 9e7b 5c39
000000e0: cef7 4cb9 b5cb f1b8 4fe0 b8b8 d8e7 4039
000000f0: 2149 e1b8 b44c ab38 ef99 98b8 1ca1 b7be
00000100: 665b 34b9 2cac 8e39 e922 b5be 038e 9cb6
00000110: 4c56 b3b8 8294 0338 0c26 b136 ffaf 82b9
00000120: 7481 b6be 3245 8339 609e 8038 c6e8 86b6
00000130: fead 8d38 dedb fe38 e849 15b9 36d9 d2b8
00000140: 3a7e 4bb9 3c49 9ab9 e1ed b6be b2a8 7db9
00000150: 3eeb ae39 5269 99b9 f11b d1b8 4369 d338
00000160: 4fd1 36b7 1139 b7be 7cb9 d1b8 43b9 7db9
00000170: f219 2bb8 62d7 6339 874a 88b9 c567 56b9
00000180: 1593 c938 8d1f b639 918c 4ab9 1c67 5939
00000190: c6b6 7539 9739 4b39 5bd9 b6be f4b3 33b9
000001a0: 3e00 5e39 412f bdb7 2b38 3136 6a73 8bb9
000001b0: bc1c 8f38 3b93 b5be 6165 203f 8f07 b538
000001c0: 09be cc38 de43 71b9 6d4d 7db9 d6f0 3e39
000001d0: 8718 243e 7afa 8138 4690 13b7 dab3 6337
000001e0: 2f9b 9cb8 e986 c738 ec34 0cb8 90a9 9bbe
000001f0: 8bcc 2439 dee6 9d39 2da4 9c38 ec3d 6db9

encoder_1.weight f4 [128, 128]
1.7809211e-07 -1.8679074e-07 -7.629518e-08 1.4209171e-08 -2.8583575e-08 -2.4286355e-06 1.4525382e-07 8.02038e-08
-2.4060096e-06 7.6375045e-07 -2.1064702e-07 1.1580132e-07 -1.9985359e-07 -1.3283925e-07 -3.507554e-07 1.7667566e-07
5.7941687e-08 -8.9004445e-08 -3.1384323e-07 1.3491128e-07 1.6861225e-07 -4.419141e-08 -3.1448332e-07 -5.357722e-07
-2.443999e-07 -3.555829e-06 5.6794534e-09 -2.4758162e-06 3.186044e-08 -8.1639136e-08 -2.4161227e-06 -1.0598117e-08
-1.2209136e-07 5.281759e-05 3.778488e-07 -4.8876018e-08 -1.296888e-07 -1.0728604e-07 -3.062718e-07 1.0444441e-07
-2.4180285e-06 8.00536e-08 -2.4094093e-06 -2.4179108e-06 2.0827179e-07 -2.4054088e-06 3.0929772e-07 -3.5302705e-07
1.137331e-07 -9.557989e-08 3.1261803e-07 -2.2554296e-07 -2.072422e-07 -2.4422632e-06 1.0550269e-07 1.8829348e-07
-1.1157786e-07 -6.929048e-08 -3.248177e-07 1.7709499e-07 -2.923019e-07 1.9495768e-07 -2.3211305e-07 -2.4050978e-06
-9.377512e-08 1.3411005e-07 -2.4343224e-06 1.5269251e-07 -3.0801203e-07 3.7400451e-07 -2.5987114e-07 -1.5980635e-07
-2.418172e-06 1.9308918e-07 5.189887e-07 2.7670404e-07 1.4974124e-07 -3.2084493e-08 1.2721226e-07 1.4843028e-08
6.7732216e-08 -2.3421948e-07 -2.4132214e-06 -1.9485955e-07 2.0296608e-07 -6.368532e-08 -2.794148e-07 1.8716948e-07
7.832973e-08 -2.4098151e-06 -4.885907e-08 -1.8037473e-07 -5.951997e-07 4.8035524e-08 -2.0941201e-07 -1.1052296e-07
2.0431564e-07 2.6720738e-07 -1.1234064e-07 1.2916868e-07 5.7476633e-08 1.3320951e-07 -2.4141523e-06 -5.9440687e-08
1.9179899e-07 -6.658299e-07 2.1822822e-07 -2.2662533e-07 6.045133e-07 -2.4291203e-06 -4.7722726e-05 3.6137664e-07
5.9214095e-08 -6.7428935e-08 -1.4896737e-07 7.894106e-08 0.000106500884 8.03802e-08 1.5171684e-08 4.2067194e-07
-1.1246137e-07 3.7330392e-07 -3.5718352e-07 -3.0621333e-05 4.681374e-08 9.2620745e-08 4.839024e-07 -1.095435e-07
7.3131014e-07 -3.5176976e-07 -3.668101e-07 -1.6008704e-07 2.3843047e-08 -3.0146714e-06 3.523736e-07 3.740299e-07
-3.006566e-06 2.4502306e-06 -4.7417e-07 3.6698898e-07 -3.4554145e-07 -1.0139136e-06 -8.947362e-07 3.4380176e-07
1.8468556e-07 -4.0843386e-07 -1.2276672e-06 7.0979974e-07 3.9935415e-07 -1.2457569e-07 -4.54663e-07 -1.7384987e-06
-3.4512956e-07 -9.492842e-06 -6.758222e-08 -3.0309147e-06 -2.1838247e-09 -2.1537261e-07 -3.010202e-06 1.34984965e-08
-3.8114135e-07 1.1335793e-05 1.4028356e-06 -1.2884126e-07 -1.3154694e-07 -5.308204e-07 -1.1649556e-06 3.5061097e-07
-3.010901e-06 2.0297901e-07 -3.0077983e-06 -3.0108765e-06 4.404467e-07 -3.006333e-06 1.0034271e-06 -4.7937255e-07
1.16468755e-07 -3.0092016e-07 8.896153e-07 -4.086135e-07 -8.826755e-07 -3.0194315e-06 5.766497e-07 3.4611406e-07
-8.192449e-07 -1.4080248e-07 -1.234236e-06 1.5248845e-07 -1.1852251e-06 2.3123194e-07 -8.9897327e-07 -3.0062329e-06
-1.5933789e-07 3.7110368e-07 -3.0166716e-06 4.3018616e-07 -1.1079701e-06 1.0198921e-06 -8.316735e-07 -3.314581e-07
-3.0109427e-06 3.524084e-07 1.7689499e-06 6.832708e-07 5.4409173e-07 6.2660517e-09 1.641371e-07 7.17194e-08
2.6118766e-08 -4.445102e-07 -3.0091542e-06 -3.2835396e-07 4.3148674e-07 -2.6804673e-07 -1.113369e-06 7.4364704e-07
1.5459148e-07 -3.0079218e-06 -5.0112508e-08 -3.330473e-07 -1.4884381e-06 3.660316e-07 -4.7111837e-07 -1.4937905e-07
8.110707e-07 5.053372e-07 -5.438528e-07 1.1240766e-07 3.492263e-07 1.4245288e-07 -3.0094732e-06 -6.49573e-07
2.1086011e-07 -1.9014482e-06 8.1401106e-07 -4.3233703e-07 1.9975764e-06 -3.0148349e-06 -3.2589593e-05 1.3658399e-06
1.534637e-07 -2.486051e-07 -3.2531076e-07 7.797702e-07 0.00012795406 3.4989205e-07 6.597537e-08 1.0927198e-06
-3.4423707e-07 1.5969571e-06 -9.3209064e-07 -4.5594847e-05 3.7172842e-07 2.8733407e-07 1.6154165e-06 -3.6373123e-07
00000000: 9639 3f34 a690 48b4 b8d7 a3b3 981c 7432
00000010: f287 f5b2 a4fb 22b6 11f7 1b34 813c ac33
00000020: ee76 21b6 8804 4d35 362e 62b4 73ae f833
00000030: 5697 56b4 93a2 0eb4 754f bcb4 3cb4 3d34
00000040: 8fdb 7833 b622 bfb3 497e a8b4 21dc 1034
00000050: c80b 3534 f8cc 3db3 42d6 a8b4 fcd1 0fb5
00000060: 1136 83b4 ada0 6eb6 0025 c331 3326 26b6
00000070: edd6 0833 9751 afb3 ac24 22b6 0313 36b2
00000080: 3818 03b4 7588 5d38 25db ca34 c0eb 51b3
00000090: 9640 0bb4 2065 e6b3 ad6d a4b4 ec4a e033
000000a0: 6a45 22b6 efe9 ab33 56b1 21b6 6443 22b6
000000b0: 50a1 5f34 9c6c 21b6 8e0d a634 ab87 bdb4
000000c0: 6f3d f433 9a41 cdb3 e5d5 a734 c72c 72b4
000000d0: 4d86 5eb4 c3e5 23b6 b890 e233 b82d 4a34
000000e0: 949c efb3 d8cc 94b3 9b62 aeb4 8027 3e34
000000f0: abed 9cb4 8f55 5134 c03a 79b4 4467 21b6
00000100: 6b61 c9b3 e4ff 0f34 575d 23b6 ccf3 2334
00000110: da5c a5b4 caca c834 6b84 8bb4 3c97 2bb4
00000120: e147 22b6 f353 4f34 a250 0b35 ea8d 9434
00000130: 8fc8 2034 46cd 09b3 d797 0834 5400 7f32
00000140: 2e74 9133 c37d 7bb4 d4f2 21b6 963a 51b4
00000150: e4ee 5934 60c3 88b3 7a02 96b4 c1f8 4834
00000160: 3936 a833 4fb8 21b6 1ed9 51b3 07ad 41b4
00000170: d0c5 1fb5 9e4f 4e33 bcda 60b4 a458 edb3
00000180: db61 5b34 b474 8f34 ec3f f1b3 9eb1 0a34
00000190: 3adc 7633 5a08 0f34 d202 22b6 ba4b 7fb3
000001a0: 4ef1 4d34 7bbb 32b5 1e52 6a34 4c56 73b4
000001b0: d645 2235 f803 23b6 e329 48b8 3a03 c234
000001c0: 9652 7e33 73cd 90b3 d7f3 1fb4 4f86 a933
000001d0: 3a59 df38 7b9d ac33 e352 8232 b6d8 e134
000001e0: 4b82 f1b3 806a c834 eec2 bfb4 686f 00b8
000001f0: 4010 4933 cbe6 c633 85e5 0135 2d3e ebb3
00000200: 404f 4435 deda bcb4 ffed c4b4 64e4 2bb4
00000210: 6acf cc32 a94f 4ab6 dc2d bd34 47ce c834
00000220: 69c4 49b6 a46e 2436 6e91 feb4 9506 c534
00000230: db82 b9b4 ce15 88b5 ce2d 70b5 c193 b834
00000240: fb4d 4634 b946 dbb4 53c6 a4b5 1189 3e35
00000250: d166 d634 1bc3 05b4 6818 f4b4 5c56 e9b5
00000260: 3f4a b9b4 7243 1fb7 b821 91b3 b866 4bb6
00000270: 4012 16b1 2c41 67b4 e002 4ab6 04e7 6732
00000280: ab9f ccb4 dc2e 3e37 1049 bc35 9e57 0ab4
00000290: 593f 0db4 b37d 0eb5 925b 9cb5 9b3b bc34
000002a0: e30e 4ab6 72f2 5934 95d9 49b6 770e 4ab6
000002b0: 8976 ec34 68c0 49b6 7ead 8635 3bae 00b5
000002c0: 601d fa33 278e a1b4 e6cd 6e35 695f dbb4
000002d0: 00f1 6cb5 70a1 4ab6 11cb 1a35 8ed1 b934
000002e0: 15ea 5bb5 7e2f 17b4 07a8 a5b5 b5bb 2334
000002f0: 0614 9fb5 8d48 7834 f950 71b5 b0be 49b6
00000300: 7716 2bb4 1a3c c734 0672 4ab6 56f4 e634
00000310: 90b5 94b5 3ae3 8835 2b40 5fb5 41f3 b1b4
00000320: 9a0f 4ab6 a432 bd34 a86c ed35 036a 3735
00000330: b30d 1235 c64c d731 aa3d 3034 2804 9a33
00000340: c65b e032 04a5 eeb4 e0f0 49b6 a048 b0b4
00000350: 16a7 e734 10e8 8fb4 116f 95b5 099f 4735
00000360: c8fd 2534 b4db 49b6 493b 57b3 accd b2b4
00000370: 58c6 c7b5 0083 c434 04ee fcb4 0065 20b4
00000380: 5bb8 5935 82a6 0735 48fd 11b5 c464 f133
00000390: 4c7d bb34 26f5 1834 5bf6 49b6 515e 2eb5
000003a0: c968 6234 4335 ffb5 6a82 5a35 f31b e8b4
000003b0: 1a0e 0636 7852 4ab6 cfb0 08b8 e751 b735
000003c0: c8c7 2434 0678 85b4 5fa6 aeb4 6651 5135
000003d0: 682b 0639 ccd8 bb34 58ae 8d33 91a9 9235
000003e0: 95cf b8b4 0757 d635 c834 7ab5 183d 3fb8
000003f0: f791 c734 e542 9a34 4ad1 d835 d746 c3b4

encoder_1.bias f4 [128]
1.4207811e-06 2.3130028e-06 0.38295376 -1.5741258e-06 6.2830713e-07 3.3616334e-06 5.049056e-06 -0.0076888544
0.16971214 -9.215064e-06 -2.016574e-06 -9.945599e-06 -1.04631945e-05 -1.6090426e-06 -5.8374394e-07 0.40947378
-2.4837796e-06 -1.9286215e-06 8.678362e-06 -2.2010863e-06 3.3064557e-06 -4.2548987e-07 -0.006673785 -4.9647115e-06
-1.0964686e-06 3.0059252e-06 -1.1304553e-06 0.3386201 -1.8663357e-05 -0.0078920815 5.9808785e-06 0.066626295
-7.954971e-06 -0.008312985 9.4283007e-07 -0.007840642 1.0925348e-06 -1.2186904e-06 6.0648117e-06 -0.008190079
2.1781993e-06 1.9899873e-07 -1.7470868e-06 4.8029403e-07 -8.914429e-06 0.3944419 4.564432e-06 0.20232083
-1.0450167e-06 -4.611412e-06 7.4393427e-07 7.830971e-07 -4.497555e-06 2.8786596e-07 -1.1776212e-06 -6.4097153e-06
-3.953244e-07 -1.3614604e-05 -1.5905637e-06 -1.6956274e-06 0.4168108 2.0143461e-06 1.0354311e-06 -5.3184846e-07
-1.1457682e-05 3.8409344e-06 -3.5718356e-06 -1.2294563e-06 -1.8245e-06 -7.4307745e-06 -3.315253e-06 -1.0128059e-05
0.39992192 -0.0071929796 6.4093234e-07 9.831968e-06 1.8495803e-06 7.0930525e-08 1.2475264e-06 -2.6485013e-06
-1.2274875e-06 -9.463877e-07 0.33835036 0.40483826 -1.68422e-06 0.27731657 -2.4978895e-06 -0.0074924673
-0.007990176 -0.008168496 -3.102274e-06 4.8679794e-06 -1.7357213e-06 -9.08925e-06 -5.363779e-08 -4.667995e-07
-9.2135565e-08 1.319906e-06 4.5373326e-06 3.072655e-06 8.420096e-06 0.19692178 3.0654685e-06 2.0549685e-05
9.3320716e-07 5.5634573e-06 2.036897e-05 2.5462914e-06 0.10500997 1.948939e-06 -3.0809374e-06 0.15735786
-0.007158942 -5.196278e-06 -3.8877515e-06 -0.0077698356 2.675442e-06 4.292425e-06 5.5195196e-06 -0.0075714863
-1.4970419e-06 -2.8487457e-05 8.519388e-06 -1.4790195e-05 -2.3057773e-06 1.9055967e-06 5.58749e-06 -4.116192e-06
00000000: abb1 be35 1639 1b36 8412 c43e 8d46 d3b5
00000010: f0a8 2835 6c98 6136 106b a936 c9f2 fbbb
00000020: 05c9 2d3e 669a 1ab7 7a54 07b6 06dc 26b7
00000030: 148b 2fb7 48f6 d7b5 94b2 1cb5 8ca6 d13e
00000040: 02af 26b6 776d 01b6 4899 1137 60b6 13b6
00000050: 7ae4 5d36 e26e e4b4 c4af dabb 8c96 a6b6
00000060: 602a 93b5 67b9 4936 26ba 97b5 9d5f ad3e
00000070: 418f 9cb7 ca4d 01bc 5baf c836 5e73 883d
00000080: 5776 05b7 3033 08bc ca16 7d35 0976 00bc
00000090: 36a3 9235 e291 a3b5 5680 cb36 ae2f 06bc
000000a0: 2e2d 1236 5bac 5534 727d eab5 8eed 0035
000000b0: 2e8f 15b7 4af4 c93e 2c28 9936 312d 4f3e
000000c0: 8042 8cb5 babb 9ab6 c6b2 4735 0636 5235
000000d0: b4e9 96b6 ff8b 9a34 c20e 9eb5 0913 d7b6
000000e0: f93c d4b4 476a 64b7 5a7b d5b5 5095 e3b5
000000f0: 3a68 d53e 342e 0736 24f9 8a35 59c4 0eb5
00000100: 5f3a 40b7 60e1 8036 abb3 6fb6 cc03 a5b5
00000110: 58e1 f4b5 de55 f9b6 9d7b 5eb6 afeb 29b7
00000120: 91c2 cc3e 16b3 ebbb 890c 2c35 fbf3 2437
00000130: 183f f835 7852 9833 ae70 a735 e8bc 31b6
00000140: 26c0 a4b5 440b 7eb5 423c ad3e f646 cf3e
00000150: 5c0d e2b5 70fc 8d3e 6aa1 27b6 5f83 f5bb
00000160: 3ae9 02bc 28d5 05bc a930 50b6 a057 a336
00000170: eef6 e8b5 087e 18b7 605f 66b3 6f9c fab4
00000180: 10dc c5b3 a027 b135 643f 9836 d033 4e36
00000190: 0944 0d37 dda5 493e 59b8 4d36 1d62 ac37
000001a0: 8281 7a35 bcad ba36 08de aa37 f4e0 2a36
000001b0: 780f d73d 84ca 0236 1ac2 4eb6 6b22 213e
000001c0: 8f95 eabb b05b aeb6 8873 82b6 1b9a febb
000001d0: be8b 3336 a607 9036 5034 b936 3b1a f8bb
000001e0: f8ed c8b5 59f8 eeb7 7eee 0e37 6723 78b7
000001f0: f4bc 1ab6 cec3 ff35 2c7c bb36 d21d 8ab6

encoder_2.weight f4 [16, 128]
-7.4141317e-06 -1.8891935e-05 -0.13391125 6.9349594e-06 1.2976708e-05 1.4742466e-06 1.5266922e-05 0.0005887259
0.11064616 -1.7563765e-05 3.9034363e-05 -1.9264424e-05 -2.3980543e-05 1.1890139e-05 3.878768e-06 -0.21671183
1.6953847e-05 1.331874e-05 1.7911181e-05 1.0757423e-05 -2.0457659e-05 2.8993354e-06 7.859564e-05 2.7750455e-05
7.650703e-06 -5.025316e-05 7.951174e-06 -0.16830091 -2.4680792e-05 0.0009847204 -3.817251e-06 -0.17902587
-1.6963324e-05 0.0025036782 -1.33653875e-05 0.00061409094 -4.72948e-06 6.307718e-06 -3.425211e-05 0.0027343351
-1.3713639e-05 -2.7320307e-06 8.3422765e-06 1.2119484e-06 -1.6001846e-05 -0.20650715 1.5116575e-05 -0.11875843
-1.1084462e-06 -1.0307585e-05 -8.370063e-06 -6.7906194e-06 3.2345382e-05 -2.5410916e-06 7.6469105e-06 -9.557471e-06
3.2306557e-06 4.46575e-05 7.6644465e-06 4.619649e-06 -0.22168024 -3.6632788e-05 -3.8666367e-06 1.3160776e-06
3.8114388e-06 -2.7731181e-05 -6.389452e-06 1.9947629e-05 9.742298e-06 -2.0172864e-05 5.328662e-05 -2.2805823e-05
-0.21022764 0.00087095925 -2.91886e-06 2.3211733e-05 -1.3519664e-05 -2.1075425e-06 -2.7977148e-05 1.1323473e-05
6.34204e-06 5.7163675e-06 -0.16811675 -0.21356048 1.1675063e-05 -0.12583494 4.6744215e-05 -0.0005069576
-0.0017101325 0.0006660981 1.9607944e-05 -2.0201607e-05 2.9082614e-06 -1.41517985e-05 1.7480087e-06 3.7204481e-06
4.7238323e-06 -8.661954e-06 -7.288553e-06 -1.8601475e-05 3.1978936e-05 -0.12129925 -1.1624077e-05 -1.2284168e-05
-6.406175e-06 -2.4282343e-05 -1.3169785e-05 -1.17509435e-05 0.10602261 3.974145e-06 4.1751984e-05 0.11162706
0.0010068278 4.1976866e-05 1.5404592e-05 -0.0022615176 -1.7475168e-05 7.832407e-06 1.2339624e-05 -0.00051781995
5.5151763e-06 -3.535608e-06 1.4850903e-05 -3.522525e-05 1.6656142e-05 -3.0081868e-05 -2.3530598e-05 3.829727e-05
-1.094503e-05 -1.7003385e-05 0.60528725 7.5585663e-06 1.2696642e-05 1.184002e-05 3.039966e-05 -0.27599627
-0.40625808 -4.1826774e-05 3.4544002e-05 -4.5054887e-05 -4.927739e-05 7.301245e-06 1.2908015e-06 0.03441864
1.4835853e-05 1.1763239e-05 4.291425e-05 1.274173e-05 -1.7057338e-05 2.7946053e-06 -0.2863689 2.3873983e-05
5.7274406e-06 -5.582203e-05 6.012818e-06 0.053040717 -5.833441e-05 -0.27451754 2.0418602e-05 -0.45480338
-3.9340644e-05 -0.27412573 -2.5196503e-05 -0.23205405 -6.869167e-06 6.860395e-06 -2.8144914e-05 -0.25427508
-1.1627091e-05 4.4769862e-07 1.0657208e-05 5.348231e-06 -3.989406e-05 0.037347145 3.5092307e-05 0.2661996
2.4121323e-06 -4.670858e-05 -5.077878e-06 -1.568283e-06 5.3844255e-05 -2.0066757e-07 6.549792e-06 -2.8993827e-05
3.4811805e-07 2.176078e-05 8.399442e-06 5.691096e-06 0.033160426 -4.981703e-05 -6.025567e-06 4.1673775e-06
-3.5785637e-05 -3.2691576e-05 -1.1033034e-05 1.9228637e-05 1.1565412e-05 -4.056613e-05 6.632413e-05 -4.7435533e-05
0.03624594 -0.28335983 -4.2300026e-06 4.7589667e-05 -8.503521e-06 8.226888e-07 -3.4287033e-05 8.630095e-06
7.4681097e-06 3.582552e-06 0.053203274 0.03528507 1.0177701e-05 0.082190424 5.0200968e-05 -0.2718176
-0.23159146 -0.24743946 2.927073e-05 -4.2704883e-06 2.643361e-06 -4.0067505e-05 -1.4969528e-06 9.538808e-07
5.592566e-06 -8.927451e-06 1.3071676e-07 -1.5817739e-05 5.4680604e-05 0.2500304 -6.6350367e-06 4.198235e-05
-3.9883826e-06 -2.2143224e-05 4.0728606e-05 -8.458395e-06 0.1355388 7.121806e-06 3.8486425e-05 -0.4036664
-0.28423616 4.028935e-05 1.869108e-05 -0.21929088 -1.5344569e-05 1.9001822e-05 2.866964e-05 -0.2706346
3.2250434e-06 -8.619809e-05 3.9718594e-05 -6.536144e-05 1.5750995e-05 -2.6699952e-05 -2.0568783e-05 3.720543e-05
00000000: e8c6 f8b6 1f7a 9eb7 0820 09be d9b2 e836
00000010: 89b6 5937 bade c535 7711 8037 ba54 1a3a
00000020: 749a e23d e655 93b7 d4b8 2338 099a a1b7
00000030: d329 c9b7 c27b 4737 5d26 8236 b5e9 5dbe
00000040: 1c38 8e37 8d73 5f37 f83f 9637 c87a 3437
00000050: 7d9c abb7 3492 4236 b7d3 a438 a6c9 e837
00000060: 855b 0037 ebc6 52b8 0866 0537 1357 2cbe
00000070: 9909 cfb7 bc11 813a f015 80b6 8f52 37be
00000080: 764c 8eb7 c014 243b e73b 60b7 f2fa 203a
00000090: edb1 9eb6 e3a6 d336 eca9 0fb8 8832 333b
000000a0: a213 66b7 ee57 37b6 cef5 0b37 3baa a235
000000b0: b43b 86b7 9c76 53be 329d 7d37 9f37 f3bd
000000c0: ecc5 94b5 beee 2cb7 266d 0cb7 fada e3b6
000000d0: 97aa 0738 9f87 2ab6 3b4b 0037 0659 20b7
000000e0: 3ece 5836 a04e 3b38 8c96 0037 7c02 9b36
000000f0: 2500 63be 28a6 19b8 28be 81b6 15a4 b035
00000100: 05c8 7f36 42a0 e8b7 fa64 d6b6 3555 a737
00000110: da72 2337 e538 a9b7 1380 5f38 224f bfb7
00000120: ea45 57be 1651 643a a2e1 43b6 d1b6 c237
00000130: 84d2 62b7 4e6f 0db6 78b0 eab7 f2f9 3d37
00000140: b5cd d436 39cf bf36 cc26 2cbe 99af 5abe
00000150: 04e0 4337 e0da 00be 380f 4438 59e5 04ba
00000160: 8626 e0ba 169d 2e3a bd7b a437 9f76 a9b7
00000170: 8d2b 4336 836d 6db7 1f9d ea35 d0ac 7936
00000180: 6981 9e36 cf52 11b7 3290 f4b6 5d0a 9cb7
00000190: 1f21 0638 be6b f8bd 0805 43b7 1a18 4eb7
000001a0: a0f4 d6b6 efb1 cbb7 ccf3 5cb7 eb25 45b7
000001b0: 6222 d93d a559 8536 da1e 2f38 ba9c e43d
000001c0: 89f7 833a 5110 3038 1c39 8137 f835 14bb
000001d0: a397 92b7 ef67 0337 4806 4f37 4fbe 07ba
000001e0: 010f b936 4845 6db6 2528 7937 d3be 13b8
000001f0: cbb8 8b37 5258 fcb7 9363 c5b7 61a1 2038
00000200: 8ca0 37b7 7ea2 8eb7 1bf4 1a3f 979f fd36
00000210: aa03 5537 80a4 4637 c602 ff37 624f 8dbe
00000220: 0f01 d0be 286f 2fb8 57e3 1038 51f9 3cb8
00000230: 32af 4eb8 38fd f436 9a3f ad35 8ffa 0c3d
00000240: 81e7 7837 ba5a 4537 d3fe 3338 50c5 5537
00000250: 5b16 8fb7 f48a 3b36 f29e 92be fd44 c837
00000260: 572e c036 7322 6ab8 b7c1 c936 3941 593d
00000270: 19ac 74b8 908d 8cbe 9d48 ab37 fddb e8be
00000280: b201 25b8 355a 8cbe 145d d3b7 949f 6dbe
00000290: b27d e6b6 5832 e636 be18 ecb7 5830 82be
000002a0: fa11 43b7 3b5b f034 5ccc 3237 f474 b336
000002b0: ec53 27b8 52f9 183d 1430 1338 504b 883e
000002c0: 1ee0 2136 f5e8 43b8 a462 aab6 cb7d d2b5
000002d0: d4d6 6138 1577 57b4 49c6 db36 c537 f3b7
000002e0: fbe4 ba34 eb8a b637 54eb 0c37 24f6 be36
000002f0: 3ad3 073d a1f2 50b8 3a2f cab6 80d5 8b36
00000300: 8918 16b8 501e 09b8 851a 39b7 2f4d a137
00000310: 1109 4237 8d25 2ab8 7f17 8b38 84f5 46b8
00000320: 9f76 143d 8a14 91be 72ef 8db6 049b 4738
00000330: 58aa 0eb7 bed6 5c35 6ccf 0fb8 fac9 1037
00000340: 9396 fa36 c66b 7036 adeb 593d 1487 103d
00000350: e5c0 2a37 7453 a83d e18e 5238 ad2b 8bbe
00000360: 5026 6dbe c560 7dbe 6a8a f537 374b 8fb6
00000370: 9964 3136 280e 28b8 e8ea c8b5 1807 8035
00000380: c7a7 bb36 1cc7 15b7 265b 0c34 56b0 84b7
00000390: da58 6538 fc03 803e 88a2 deb6 3416 3038
000003a0: f2d3 85b6 36c0 b9b7 02d4 2a38 88e8 0db7
000003b0: afca 0a3e d9f7 ee36 7c6c 2138 5dad cebe
000003c0: 6787 91be 5cfc 2838 caca 9c37 ca8d 60be
000003d0: 36b8 80b7 1a66 9f37 957f f037 9e90 8abe
000003e0: d36d 5836 3fc5 b4b8 8497 2638 a812 89b8
000003f0: 0121 8437 b6f9 dfb7 208b acb7 070d 1c38

encoder_2.bias f4 [16]
-0.056028247 0.022183293 0.12520583 3.4965103e-06 0.08639524 -0.00354584 -0.08523103 -0.1758141
0.16266727 4.8594516e-06 -0.09290533 0.005967486 0.010511714 0.07469222 0.11942138 -0.07143101
00000000: e07d 65bd bdb9 b53c f535 003e 97a5 6a36
00000010: fdef b03d 5361 68bb 9b8d aebd 9d08 34be
00000020: 4092 263e 5f0e a336 2645 bebd e78a c33b
00000030: 5339 2c3c 3cf8 983d 3293 f43d 6c4a 92bd

decoder_0.weight f4 [128, 17]
7.0320616e-06 8.82538e-05 4.8177088e-05 -0.00012519624 -4.3166865e-06 5.3358763e-05 0.00027843515 -3.443988e-05
-0.00021069351 -9.118229e-05 6.4982905e-06 7.264677e-05 -0.00091382855 0.00016466081 -1.2769995e-05 6.19665e-05
2.7356005e-05 0.22003436 0.016192816 -0.20720297 -0.042888753 -4.851953e-05 -0.038548052 0.011828962
0.035462048 0.112221226 -0.07398028 6.7650485e-06 0.0343686 0.052636053 0.030863103 -0.027188122
-0.06419113 0.025625456 -7.9886803e-07 5.2985804e-05 4.288804e-06 -1.9031715e-05 3.9668055e-07 -1.7247773e-06
-8.238809e-05 9.332039e-06 -3.2489705e-05 1.2764288e-05 -1.3887529e-06 1.7221933e-05 7.967244e-05 -1.1864127e-05
-2.5350982e-05 2.0470303e-05 2.733689e-05 -0.24335624 -0.0038492798 -0.041392744 0.010811589 1.8630899e-05
0.00840171 0.0024143667 -0.008123706 -0.019631695 0.015324675 1.3218878e-06 -0.008274786 -0.002747949
0.011554725 0.006640862 0.012042484 -0.0061941906 0.80305564 0.08204729 0.23876522 -0.1597709
-3.9832263e-05 -0.1035231 0.030955719 0.10603371 0.17237477 -0.16720217 -6.787021e-05 0.115069136
-0.07062004 -0.050749265 -0.098485745 -0.12470364 0.0942603 0.8666712 0.07586066 -0.15762196
-0.1803511 1.0941157e-05 -0.12127302 0.0014745827 0.118673645 0.25430366 -0.21785963 -1.9337756e-05
0.13251151 -0.009934473 -0.012637305 -0.10241379 -0.17812411 0.09785059 0.87567484 0.12297322
-0.20337905 -0.23929851 -6.207379e-05 -0.18117946 0.0331358 0.17918807 0.36777022 -0.31970638
-4.098368e-05 0.18441977 0.008312794 -0.008878146 -0.15869129 -0.23876627 0.15158907 5.442639e-06
2.4722887e-05 3.166312e-05 -6.860597e-06 -1.3589176e-06 3.277781e-05 0.00017299921 -2.7140768e-05 1.1659878e-05
2.0558758e-05 8.403449e-06 1.1529236e-05 -0.00065283786 0.00049439224 9.864202e-06 1.8657982e-05 -2.9396178e-06
0.035929967 -0.11107777 0.08823747 -0.023104431 -0.00015632878 0.07399053 0.0031726432 -0.086543694
0.062223624 -0.13798766 -5.9371883e-05 -0.008861083 0.119200684 0.39040294 0.098539725 -0.041327544
-0.09050949 -0.26224545 0.012946018 -0.11083203 -0.0055755456 6.6891516e-05 0.016997958 -0.004292944
-0.013051566 -0.08794626 0.008760815 -2.1059317e-05 -0.00043940157 -0.08618232 0.041815363 0.0025977222
0.03260235 -0.0001247235 8.724852e-06 0.0001320731 5.4518976e-05 -0.00014933616 -1.1923544e-06 5.968192e-05
0.00022180766 -3.432301e-05 -0.0002845821 -0.00011815872 1.4798179e-05 8.609056e-05 -0.0009730209 0.000795343
-2.850676e-05 8.5253465e-05 4.588629e-05 -2.122742e-06 -1.7773622e-05 -2.2275039e-05 8.759467e-05 1.9757783e-06
-4.0400475e-05 -0.00012742468 3.3415916e-05 0.00014602391 0.00010234413 -3.500181e-06 -4.185037e-05 0.0006163052
-8.3605526e-05 -1.245469e-05 -2.6806025e-05 3.5718472e-06 -8.1843355e-06 -2.5751601e-06 -3.36025e-05 4.2478852e-05
3.699263e-06 -4.7282392e-05 -0.00027785497 4.3980348e-05 6.990188e-05 5.5800545e-05 -6.6104376e-06 -1.7983131e-05
0.0006892128 -0.000346678 -2.905587e-05 -1.8800254e-05 2.0604151e-05 -9.8556575e-06 -8.7241286e-05 -5.2135907e-05
0.00012693553 3.4774864e-06 -4.7057223e-05 -0.00028396398 2.6990534e-05 0.00023975063 9.140562e-05 -1.0045348e-05
-7.256227e-05 0.00076285505 -0.00060558255 2.0918742e-05 -7.0180315e-05 -3.3980607e-05 0.6575663 0.052518275
-0.31250772 -0.12748016 -0.00018569987 -0.095157005 0.03605431 0.09140791 0.23553678 -0.17644466
-6.732522e-05 0.09269108 0.0664453 0.028567763 -0.07577543 -0.14438632 0.07156291 -2.019296e-06
00000000: f3f4 eb36 e614 b938 c111 4a38 1c47 03b9
00000010: 0ed8 90b6 89cd 5f38 effa 9139 8a73 10b8
00000020: 9ced 5cb9 1f39 bfb8 e40b da36 f059 9838
00000030: ff8d 6fba cda8 2c39 b63e 56b7 03f4 8138
00000040: 937a e537 b050 613e cca6 843c 042d 54be
00000050: 1eac 2fbd 7381 4bb8 90e4 1dbd 43ce 413c
00000060: a740 113d 3ed4 e53d f982 97bd 53ff e236
00000070: 17c6 0c3d e798 573d 9ed4 fc3c a0b9 debc
00000080: a476 83bd 7aec d13c cb71 56b5 133d 5e38
00000090: 8ce8 8f36 4ca6 9fb7 5cf7 d434 e67e e7b5
000000a0: c5c7 acb8 cd90 1c37 8e45 08b8 3326 5637
000000b0: 3065 bab5 d277 9037 d115 a738 0a0c 47b7
000000c0: d2a8 d4b7 a4b7 ab37 8651 e537 6132 79be
000000d0: 3344 7cbb 708b 29bd 1723 313c 8d49 9c37
000000e0: 53a7 093c 5a3a 1e3b 4b19 05bc a6d2 a0bc
000000f0: 5814 7b3c b86b b135 f892 07bc ef16 34bb
00000100: 0750 3d3c 979b d93b d74d 453c a3f8 cabb
00000110: 0e95 4d3f 6908 a83d df7e 743e fc9a 23be
00000120: 9111 27b8 eb03 d4bd d996 fd3c 3428 d93d
00000130: 0383 303e 0c37 2bbe 8b55 8eb8 5ea9 eb3d
00000140: 3da1 90bd 76de 4fbd e5b2 c9bd 9f64 ffbd
00000150: 8b0b c13d 2ade 5d3f d55c 9b3d a767 21be
00000160: f5ad 38be e98f 3737 fd5d f8bd c946 c13a
00000170: 2b0b f33d 1734 823e 9816 5fbe 8437 a2b7
00000180: 19b1 073e 33c4 22bc b30c 4fbc 52be d1bd
00000190: 2b66 36be e465 c83d 3a2c 603f 62d9 fb3d
000001a0: 9942 50be ab0a 75be 9d2d 82b8 1c87 39be
000001b0: 68b9 073d 147d 373e 614c bc3e 8eb0 a3be
000001c0: e4e5 2bb8 89d8 3c3e 6332 083c a575 11bc
000001d0: f87f 22be 257f 74be 2a3a 1b3e ea9f b636
000001e0: ff63 cf37 04ce 0438 1434 e6b6 0e64 b6b5
000001f0: e87a 0938 1f67 3539 5bac e3b7 cb9e 4337
00000200: 9975 ac37 8afc 0c37 b16d 4137 3523 2bba
00000210: 1a9a 013a 6d7e 2537 b683 9c37 4046 45b6
00000220: 4d2b 133d be7c e3bd d9b5 b43d 8145 bdbc
00000230: 30ec 23b9 5988 973d 1fec 4f3b d23d b1bd
00000240: 33de 7e3d a34c 0dbe 1306 79b8 132e 11bc
00000250: 7d1f f43d e5e2 c73e 32cf c93d 1247 29bd
00000260: 0a5d b9bd 0945 86be 891b 543c e7fb e2bd
00000270: 11b3 b6bb 1c48 8c38 4d3f 8b3c d3ab 8cbb
00000280: 3cd6 55bc 2b1d b4bd 8589 0f3c 8aa8 b0b7
00000290: 7b5f e6b9 5b80 b0bd 9646 2b3d 8c3e 2a3b
000002a0: 0b8a 053d 36c8 02b9 f460 1237 1a7d 0a39
000002b0: 4eab 6438 1f97 1cb9 fc08 a0b5 f952 7a38
000002c0: 0a95 6839 0df6 0fb8 f733 95b9 fbcb f7b8
000002d0: b245 7837 848b b438 5412 7fba 917e 503a
000002e0: cd21 efb7 1bca b238 0776 4038 6e74 0eb6
000002f0: 9018 95b7 48db bab7 08b3 b738 9d97 0436
00000300: ae73 29b8 4d9d 05b9 1128 0c38 ff1d 1939
00000310: 96a1 d638 a7e4 6ab6 7e88 2fb8 8b8f 213a
00000320: 6055 afb8 7cf4 50b7 80dd e0b7 deb3 6f36
00000330: 744f 09b7 ead0 2cb6 69f0 0cb8 522b 3238
00000340: db40 7836 1551 46b8 10ad 91b9 8a77 3838
00000350: 4998 9238 610b 6a38 3acf ddb6 7bda 96b7
00000360: 4aac 343a 55c2 b5b9 01bd f3b7 3db5 9db7
00000370: 14d7 ac37 ba59 25b7 4ff5 b6b8 81ac 5ab8
00000380: ff19 0539 c35e 6936 4f5f 45b8 00e1 94b9
00000390: bb69 e237 9265 7b39 05b1 bf38 7188 28b7
000003a0: 922c 98b8 56fa 473a f5bf 1eba a87a af37
000003b0: c52d 93b8 6686 0eb8 4456 283f 671d 573d
000003c0: 0301 a0be 298a 02be 6eb8 42b9 ade1 c2bd
000003d0: afad 133d 1234 bb3d 8e30 713e e9ad 34be
000003e0: f430 8db8 d2d4 bd3d 7914 883d f106 ea3c
000003f0: 2630 9bbd 02da 13be 938f 923d 3e83 07b6

decoder_0.bias f4 [128]
1.0216186e-05 -0.003948074 1.3349131e-06 0.0008858352 -0.006176587 -0.0057164705 -0.013413443 4.1111316e-06
-0.00417014 0.002107258 1.0727521e-05 -5.8202336e-06 -9.8755845e-06 -9.755176e-06 -0.00833596 2.7986262e-06
-3.929922e-06 -8.879772e-07 -0.046301026 -0.018768419 0.02086542 -0.009893587 -0.0028929557 -0.003688137
-0.008561602 0.0008798357 -0.003141916 0.00045929218 0.002671523 1.00583675e-05 -0.007820238 -0.0050502643
-0.0001711616 -0.0026155142 0.003720073 0.0077396315 0.0011478916 -0.0024321128 0.0031764517 -0.0012798856
1.1740611e-05 -0.02792922 0.013346212 0.004815739 0.00088363676 5.3346685e-06 -0.002159436 3.4386062e-07
0.00086857245 0.010505205 -2.9644143e-06 -0.012695385 -7.0426468e-06 0.00086838624 -0.01180902 -4.766074e-06
-4.7606272e-06 -0.00039427076 -0.007981751 -6.699406e-06 4.831578e-06 0.0024487171 -1.975494e-05 -3.7686482e-06
-0.011048185 0.0008056844 0.0037972075 -0.0077837473 -0.0060389745 -1.1097393e-05 -0.017017987 3.3977035e-06
-3.0127217e-06 0.0008066786 0.0008036847 0.003505473 0.00064211636 -0.023754023 0.015415031 -0.018770656
-9.330222e-06 4.1196704e-06 0.014126975 0.00043380758 5.6959093e-06 -0.0026573155 -0.04247223 -0.002487312
0.01283982 1.1386204e-05 -9.940061e-06 -0.013481329 0.0008077232 -9.249667e-06 0.0048751924 6.2308523e-06
4.485184e-06 -3.254945e-08 -1.3720137e-05 -0.014556332 0.0011265877 0.012467746 9.250029e-06 -0.012390771
0.0017053102 -0.0022029516 -0.00056891365 1.4301681e-05 -9.435794e-06 -7.409688e-06 6.2857944e-06 0.0008027769
-6.8549098e-06 5.256116e-06 -0.008789228 -3.2013156e-06 -0.029377934 -0.013751214 -0.0063181794 -0.023362832
0.027271397 0.00084013614 9.963973e-06 -0.005056937 3.3543736e-06 -6.0610337e-06 -0.0039015901 -0.0035048884
00000000: 2f66 2b37 d85e 81bb 442b b335 6537 683a
00000010: f864 cabb 3b51 bbbb 0fc4 5bbc 5af2 8936
00000020: aba5 88bb ec19 0a3b 5afa 3337 6d4b c3b6
00000030: 50af 25b7 29aa 23b7 8d93 08bc 08d0 3b36
00000040: c6dd 83b6 545d 6eb5 25a6 3dbd 3ac0 99bc
00000050: f5ed aa3c b618 22bc be97 3dbb acb4 71bb
00000060: f645 0cbc c6a4 663a 9ae8 4dbb 27cd f039
00000070: b814 2f3b 5cc0 2837 7520 00bc b07c a5bb
00000080: d879 33b9 0c69 2bbb 78cc 733b bc9c fd3b
00000090: da74 963a 1564 1fbb 042c 503b d6c1 a7ba
000000a0: 8af9 4437 d2cb e4bc 12aa 5a3c 59cd 9d3b
000000b0: dca3 673a 7400 b336 5385 0dbb d89b b834
000000c0: e9b0 633a 061e 2c3c 40f0 46b6 4e00 50bc
000000d0: e04f ecb6 6aa4 633a 9f7a 41bc 44ec 9fb6
000000e0: 7abd 9fb6 20b6 ceb9 e4c5 02bc 76cb e0b6
000000f0: f01e a236 a87a 203b 69b7 a5b7 e2e8 7cb6
00000100: 7203 35bc 9134 533a 92da 783b ce0e ffbb
00000110: 97e2 c5bb f12e 3ab7 4e69 8bbc 1a04 6436
00000120: 2a2e 4ab6 4977 533a 5eae 523a 14bc 653b
00000130: b353 283a cc97 c2bc 548f 7c3c ebc4 99bc
00000140: 0089 1cb7 b33b 8a36 d474 673c ab70 e339
00000150: 7d1f bf36 5b26 2ebb 5cf7 2dbd 2c02 23bb
00000160: 1c5e 523c 6007 3f37 3dc4 26b7 cbe0 5cbc
00000170: 63bd 533a 042f 1bb7 14c0 9f3b 9d12 d136
00000180: 707f 9636 80cc 0bb3 8a2f 66b7 ae7d 6ebc
00000190: 03aa 933a 8445 4c3c 9230 1b37 a902 4bbc
000001a0: b784 df3a 655f 10bb 2623 15ba 41f1 6f37
000001b0: 6d4e 1eb7 bca0 f8b6 90ea d236 7271 523a
000001c0: 3a03 e6b6 b15d b036 b200 10bc 2fd6 56b6
000001d0: fea9 f0bc c64c 61bc bb08 cfbb 6963 bfbc
000001e0: 4468 df3c 953c 5c3a f02a 2737 aab4 a5bb
000001f0: b31b 6136 e25f cbb6 d2b1 7fbb 45b2 65bb

decoder_1.weight f4 [128, 128]
2.1364106e-09 -2.0755306e-06 -1.9270165e-09 -1.3613015e-06 -1.4137783e-05 8.413612e-06 7.232313e-06 1.5934832e-08
3.605586e-07 -1.5707318e-06 3.3268915e-08 5.770598e-09 -8.605026e-09 -2.00119e-08 2.2058635e-05 -1.4939289e-08
7.4045365e-09 -1.07741e-08 -4.915169e-06 1.0015262e-05 3.784898e-06 1.5511432e-05 -2.3333532e-06 -2.0387007e-07
-1.1086246e-06 -1.3648677e-06 -2.1508615e-06 4.791739e-06 -4.4436315e-06 3.6070322e-08 1.1769321e-05 9.8771096e-08
-6.77016e-07 -1.1700526e-05 -4.159685e-07 -2.9311552e-06 -1.9233846e-06 -2.8797335e-06 -2.1936482e-06 -1.8632832e-06
2.3547346e-09 -1.6980255e-06 -1.0688433e-05 3.8113974e-06 -1.3610627e-06 -4.8990447e-09 4.5085785e-06 -1.873518e-08
-1.3707711e-06 3.5171893e-06 6.8905344e-09 -7.5776177e-07 4.5817834e-09 -1.3678766e-06 -9.395836e-06 7.839056e-09
-6.576534e-09 -2.3696472e-07 4.7437368e-07 -1.47873305e-08 1.8701469e-08 -1.8688937e-06 -1.0723202e-08 4.773007e-08
6.5106096e-06 -1.3345158e-06 -8.9890955e-07 -1.5883164e-06 8.107636e-06 -8.477721e-09 6.6112525e-06 -3.1666172e-09
-6.5307475e-09 -1.3325896e-06 -1.2932342e-06 -4.314033e-06 3.760917e-06 -1.4819014e-06 -1.9089584e-06 -7.4851323e-07
-1.4862414e-08 -1.0923314e-08 1.1468782e-06 8.9174555e-06 -8.59078e-09 -2.582195e-06 3.5326464e-06 -3.6117399e-06
1.6805672e-06 4.5489283e-09 -3.390541e-08 -3.0880958e-06 -1.3388961e-06 -2.2132017e-08 -1.248409e-06 4.4063153e-09
-1.114511e-08 -2.0356884e-08 -9.507879e-09 -1.0162315e-05 3.632276e-06 -1.8049802e-06 3.3966675e-08 -1.9328431e-06
-5.9518328e-08 -1.3229907e-06 -1.5335601e-06 2.0624523e-08 4.130145e-09 -7.1589517e-09 -8.240351e-09 -1.3305723e-06
1.4326119e-09 7.7956955e-08 3.4595569e-06 -1.3933509e-08 -2.3488341e-05 -1.2859526e-06 -4.6958658e-06 -3.1785912e-06
1.995379e-06 -1.356979e-06 2.130967e-08 1.733052e-05 2.6179187e-08 -5.684273e-09 -9.4758116e-07 -2.322026e-07
-7.046981e-09 2.8641834e-06 5.5667977e-09 -3.6677018e-06 -7.5442113e-06 1.0960669e-05 -1.4310378e-07 -6.62987e-09
-2.900176e-06 -3.5875144e-06 2.9849703e-09 7.2145823e-09 8.766491e-09 6.5233423e-09 2.4918856e-05 -2.0337055e-08
1.1968696e-08 -2.2986644e-09 -1.323736e-05 -7.309567e-06 9.169859e-06 2.6070322e-06 -3.379734e-06 -3.430669e-06
-3.9320753e-06 -3.6532217e-06 4.2854062e-06 3.4131297e-06 7.609116e-06 3.2752017e-09 -2.4992723e-06 -5.307525e-06
7.2510625e-06 -9.294618e-06 -2.1781038e-06 1.9988659e-07 -4.457161e-06 1.8011299e-06 -4.7233725e-06 -4.0647483e-06
-8.0996765e-09 -9.804892e-06 1.902672e-06 -9.13085e-06 -3.6592487e-06 -1.3975581e-08 2.6028074e-06 -1.6051914e-08
-3.6379174e-06 -5.017002e-06 1.4785675e-08 -2.6314223e-07 9.881849e-09 -3.6347355e-06 -3.852563e-06 1.0951927e-08
-5.870032e-09 9.832374e-06 -2.4159374e-06 5.3976743e-09 1.8061275e-08 -3.452127e-06 -5.6524434e-09 3.8820247e-08
4.612869e-06 -3.6733813e-06 -2.6439268e-06 -6.4833475e-06 4.931258e-06 8.4703e-09 7.0965034e-06 -8.865499e-09
-5.6481375e-09 -3.676454e-06 -3.6912606e-06 -2.5405209e-06 2.244115e-06 -6.7977153e-06 1.2355892e-05 -8.456978e-06
-6.001174e-09 -1.32654945e-08 9.188924e-06 8.700299e-06 -1.6835658e-08 -4.689321e-06 -1.4357147e-05 -5.0732847e-06
-6.4977207e-06 -8.876457e-09 -3.3633036e-08 -1.6267509e-06 -3.6775568e-06 7.4493802e-09 -3.8113121e-06 -1.3229956e-09
-1.7395354e-08 -1.7792203e-08 4.0885593e-09 4.3162595e-06 2.823851e-06 6.6308235e-06 3.4614367e-09 -3.551926e-06
-1.1433116e-06 -3.845453e-06 -4.0114446e-06 -8.114961e-09 1.1855508e-08 -1.806394e-08 -1.0870151e-08 -3.6649042e-06
4.1267953e-09 6.232872e-08 2.0455602e-06 -1.4306203e-08 4.780001e-06 8.353569e-06 -1.134983e-05 9.323294e-06
-1.5716068e-05 -3.6560164e-06 -7.318822e-09 1.0069722e-05 2.2686859e-08 8.725457e-10 -5.5916867e-06 -3.2987427e-06
00000000: 22d0 1231 5849 0bb6 6f6c 04b1 f7b5 b6b5
00000010: 5131 6db7 3028 0d37 18ad f236 11e1 8832
00000020: cc92 c134 efd1 d2b5 8fe3 0e33 b846 c631
00000030: 4ed5 13b2 a2e6 abb2 8f0a b937 d853 80b2
00000040: fe6a fe31 fe18 39b2 fbec a4b6 3907 2837
00000050: 0d00 7e36 8c1e 8237 b496 1cb6 61e7 5ab4
00000060: 0dcc 94b5 7f30 b7b5 8557 10b6 b9c8 a036
00000070: 811a 95b6 bdeb 1a33 d974 4537 fc1b d433
00000080: 2fbc 35b5 604d 44b7 4652 dfb4 ddb4 44b6
00000090: 7f13 01b6 7241 41b6 9736 13b6 ec15 fab5
000000a0: eed0 2131 b6e7 e3b5 7852 33b7 4fc7 7f36
000000b0: c2ad b6b5 7454 a8b1 6548 9736 19ef a0b2
000000c0: 56fb b7b5 da08 6c36 c8c1 ec31 fe68 4bb5
000000d0: cb6d 9d31 e297 b7b5 cfa2 1db7 88ac 0632
000000e0: cef7 e1b1 5e70 7eb4 6cad fe34 5e0b 7eb2
000000f0: f7a4 a032 b3d6 fab5 2439 38b2 c4ff 4c33
00000100: b675 da36 9d1d b3b5 984c 71b5 232e d5b5
00000110: 0806 0837 69a5 11b2 3ad6 dd36 b89b 59b1
00000120: 1065 e0b1 6edb b2b5 3093 adb5 43c1 90b6
00000130: 1064 7c36 bfe5 c6b5 a81b 00b6 70ed 48b5
00000140: 9755 7fb2 3ea9 3bb2 6fee 9935 2e9c 1537
00000150: a696 13b2 c649 2db6 6712 6d36 3861 72b6
00000160: d98f e135 cc4c 9c31 649f 11b3 153d 4fb6
00000170: 1fb4 b3b5 d21c beb2 028f a7b5 5c66 9731
00000180: b678 3fb2 43dd aeb2 1858 23b2 d07e 2ab7
00000190: 07c2 7336 a642 f2b5 c1e2 1133 feb5 01b6
000001a0: 18a1 7fb3 9d91 b1b5 b9d4 cdb5 ce29 b132
000001b0: 24e9 8d31 cefa f5b1 7291 0db2 1e96 b2b5
000001c0: 8de5 c430 4a69 a733 bc2a 6836 3860 6fb2
000001d0: d408 c5b7 ff98 acb5 2e91 9db6 c84f 55b6
000001e0: 5ae8 0536 7221 b6b5 760c b732 0261 9137
000001f0: a4e0 e032 654f c3b1 485d 7eb5 5d53 79b4
00000200: e721 f2b1 4c36 4036 1246 bf31 a322 76b6
00000210: 4824 fdb6 b7e3 3737 11a8 19b4 f4cc e3b1
00000220: a5a0 42b6 07c1 70b6 2720 4d31 23e4 f731
00000230: 6f9b 1632 ed23 e031 d608 d137 a8b1 aeb2
00000240: e29e 4d32 88f6 1db1 0716 5eb7 b444 f5b6
00000250: 3fd8 1937 79f4 2e36 63cf 62b6 723a 66b6
00000260: 45f0 83b6 df29 75b6 5ccb 8f36 1f0d 6536
00000270: cf51 ff36 f511 6131 2cb9 27b6 4b17 b2b6
00000280: 274e f336 15f0 1bb7 8a2b 12b6 68a0 5634
00000290: b98e 95b6 5abe f135 767d 9eb6 ec63 88b6
000002a0: c126 0bb2 b17f 24b7 505f ff35 b430 19b7
000002b0: 6a91 75b6 4119 70b2 e4ab 2e36 88e2 89b2
000002c0: f222 74b6 b857 a8b6 1604 7e32 fe45 8db4
000002d0: d5c4 2932 48ec 73b6 4445 81b6 1627 3c32
000002e0: 59b1 c9b1 baf5 2437 7d21 22b6 7276 b931
000002f0: 2a25 9b32 17ab 67b6 6b37 c2b1 50bb 2633
00000300: 3ec8 9a36 3684 76b6 516e 31b6 888b d9b6
00000310: 2f77 a536 c684 1132 801e ee36 e04e 18b2
00000320: 8b11 c2b1 00b9 76b6 60b7 77b6 d17d 2ab6
00000330: 9a99 1636 ee17 e4b6 274c 4f37 72e2 0db7
00000340: e232 ceb1 43e6 63b2 212a 1a37 80f7 1137
00000350: 019e 90b2 f658 9db6 7adf 70b7 2f3b aab6
00000360: ff06 dab6 127f 18b2 ea73 10b3 bc56 dab5
00000370: f2cb 76b6 71f5 ff31 d8c5 7fb6 c5d4 b5b0
00000380: ca6c 95b2 78d5 98b2 597b 8c31 63d4 9036
00000390: 6481 3d36 577e de36 3dde 6d31 a05d 6eb6
000003a0: e373 99b5 3108 81b6 0c9a 86b6 fa69 0bb2
000003b0: 13ad 4b32 062b 9bb2 6ebf 3ab2 93f2 75b6
000003c0: adcb 8d31 94d9 8533 7546 0936 59c7 75b2
000003d0: e563 a036 4e26 0c37 266b 3eb7 3e6b 1c37
000003e0: 00d6 83b7 e259 75b6 0a79 fbb1 20f1 2837
000003f0: eee0 c232 f2d7 6f30 39a0 bbb6 f85f 5db6

decoder_1.bias f4 [128]
1.7101353e-06 4.0207424e-06 0.0066751232 -0.009350315 0.012268229 3.6441668e-07 1.0168265e-05 -9.393377e-06
0.02728213 0.007078682 4.7674266e-06 9.403422e-06 0.040998098 -6.111064e-07 0.059902325 2.9696228e-06
2.3892394e-06 6.714405e-07 -0.02149733 0.024704052 -2.4968892e-06 -0.04421083 1.3597825e-06 0.031328395
-3.4710763e-06 -1.7251059e-06 -0.028887458 -5.220831e-06 -1.3510846e-06 -8.186843e-06 1.8373973e-06 -0.024083741
2.9315386e-06 1.2504788e-06 -0.004101543 -1.6743383e-06 -5.5233977e-07 0.01669293 0.014388854 -1.4805701e-06
1.2701252e-06 -4.75947e-07 2.585098e-06 8.294855e-06 5.1486563e-06 -3.7760933e-07 -3.729404e-06 0.024835868
-2.4312274e-06 -1.7610643e-07 -3.0776453e-06 2.689989e-06 -2.117065e-08 0.031539243 -0.029320251 -2.0821115e-06
-3.5736944e-06 -8.3626055e-06 2.0158016e-06 -1.2772477e-06 3.0465692e-06 1.210068e-05 2.4864614e-06 3.0079161e-06
-8.07783e-07 0.009367158 0.0129831685 -1.9202212e-06 1.7450121e-06 -1.7035572e-06 -9.504891e-06 -2.3327532e-06
1.5025739e-06 1.702905e-05 3.2894584e-07 8.1332684e-07 -7.4614286e-07 -2.4440435e-06 5.656365e-06 3.845464e-06
2.0158766e-05 5.243117e-07 0.02536179 1.0900146e-06 0.008292779 8.6204755e-06 -2.8261159e-06 4.3189223e-07
2.74691e-06 2.2295085e-06 0.050926507 -1.6715977e-07 4.8350157e-06 4.9441223e-07 -0.0066813217 -4.5742502e-07
6.115553e-06 1.283254e-06 -2.86143e-06 -1.2223378e-06 1.0723675e-05 1.2414083e-07 3.9041206e-06 1.4995997e-05
-0.0040193214 6.3100447e-07 -7.539654e-07 0.03553967 -1.0100001e-05 -5.6217655e-06 -2.2190903e-07 -0.00560145
0.0059944433 -1.0217029e-05 3.9007805e-06 5.1141387e-06 3.8496955e-06 -0.0008767016 7.27474e-07 5.8006112e-06
-1.6977124e-06 -2.2141974e-06 -6.426373e-06 0.0250127 1.0774619e-05 6.0092714e-07 0.020547125 -0.034694016
00000000: cd87 e535 eae9 8636 feba da3b 1032 19bc
00000010: af00 493c 0ca5 c334 5e98 2a37 3f98 1db7
00000020: c67e df3c 4af4 e73b e2f7 9f36 64c3 1d37
00000030: 9fed 273d e90a 24b5 245c 753d bb49 4736
00000040: d256 2036 0a3d 3435 2b1b b0bc 2760 ca3c
00000050: 3b90 27b6 6a16 35bd c581 b635 3452 003d
00000060: a3f0 68b6 308a e7b5 64a5 ecbc 992e afb6
00000070: ea56 b5b5 395a 09b7 7e9c f635 444b c5bc
00000080: 73bb 4436 20d6 a735 3d66 86bb d3b9 e0b5
00000090: 8044 14b5 9dbf 883c 3abf 6b3c 00b8 c6b5
000000a0: 2b79 aa35 a885 ffb4 a57b 2d36 222a 0b37
000000b0: 9fc2 ac36 3bba cab4 ac46 7ab6 9774 cb3c
000000c0: 2b28 23b6 c417 3db4 8b89 4eb6 a985 3436
000000d0: c0da b5b2 4b2f 013d 0631 f0bc 67ba 0bb6
000000e0: 9ad3 6fb6 1e4d 0cb7 3547 0736 e66d abb5
000000f0: a973 4c36 0604 4b37 15dd 2636 9bdb 4936
00000100: 6dd6 58b5 b578 193c 5bb7 543c 26dd 00b6
00000110: 2936 ea35 c8a5 e4b5 3277 1fb7 658c 1cb6
00000120: 0cac c935 9bd9 8e37 f999 b034 6553 5a35
00000130: 8c4a 48b5 5904 24b6 cecb bd36 4908 8136
00000140: 9f1a a937 6dbe 0c35 87c3 cf3c 9e4c 9235
00000150: 70de 073c a9a0 1037 4da8 3db6 d1de e734
00000160: 8e57 3836 aa9e 1536 5098 503d 877c 33b4
00000170: 783c a236 c0b7 0435 fdee dabb 0494 f5b4
00000180: 3334 cd36 463c ac35 fe06 40b6 350f a4b5
00000190: d5e9 3337 924b 0534 2400 8336 5197 7b37
000001a0: 83b4 83bb 4c62 2935 1c64 4ab5 0c92 113d
000001b0: 2d73 29b7 99a2 bcb6 e445 6eb4 5e8c b7bb
000001c0: 096d c43b ce69 2bb7 73e3 8236 1e9a ab36
000001d0: a22c 8136 73d2 65ba a247 4335 dfa2 c236
000001e0: f4dc e3b5 9f97 14b6 20a2 d7b6 6fe7 cc3c
000001f0: a3c4 3437 664f 2135 7252 a83c 501b 0ebd
