content/post/crom/code/model_trained.pth (torch, 440651 bytes, 13 tensors)

encoder.0.weight f4 [128, 501]
0	0x8115b5d8	-2.7497444e-38
1	0xb5885cf2	-1.015984e-06
2	0xb5f84f52	-1.8500525e-06
3	0xb6261bc9	-2.47521e-06
4	0xb645be79	-2.9466157e-06
5	0xb65ca2ba	-3.2877274e-06
6	0xb66e59fd	-3.5517144e-06
7	0xb6803a59	-3.82149e-06
8	0xb68ce2f7	-4.1987473e-06
9	0xb6a10b15	-4.799464e-06
10	0xb6c1389c	-5.7584384e-06
11	0xb6f05536	-7.1624772e-06
12	0xb6decbe2	-6.6398507e-06
13	0xb6589594	-3.2273574e-06
14	0xb4ac3f54	-3.2083574e-07
15	0x35c380f0	1.4566158e-06
16	0x364f541f	3.0894369e-06
17	0x36bfd678	5.717211e-06
18	0x371b051b	9.239909e-06
19	0x3757086a	1.2816958e-05
20	0x37824152	1.5527625e-05
21	0x378ba357	1.6646152e-05
22	0x3783afe7	1.5698328e-05
23	0x3752fa17	1.2575204e-05
24	0x3703401f	7.823138e-06
25	0x364dd938	3.0673818e-06
26	0x34652112	2.1339318e-07
27	0xb6464e10	-2.9549738e-06
28	0xb706e85c	-8.041123e-06
29	0xb6c0f3c6	-5.750425e-06
30	0xb694b282	-4.4315248e-06
31	0xb6c2862d	-5.7972707e-06
32	0xb6f46ee6	-7.284677e-06
33	0xb6f19802	-7.2000557e-06
34	0xb6c5036c	-5.871456e-06
35	0xb69b2ba0	-4.6244386e-06
36	0xb66aaf2d	-3.4970683e-06
37	0xb3a39736	-7.617784e-08
38	0x36715518	3.596133e-06
39	0x368ee68a	4.258768e-06
40	0x36a41795	4.890326e-06
41	0x3719a7c8	9.158575e-06
42	0x37789445	1.4816474e-05
43	0x3794056c	1.76455e-05
44	0x377929ae	1.4851261e-05
45	0x3707e38e	8.099609e-06
46	0x3708efe8	8.162089e-06
47	0x36e664ac	6.866254e-06
48	0x36b3dd60	5.360387e-06
49	0x3691aba6	4.3413193e-06
50	0xb71af9fd	-9.23732e-06
51	0xb7ddf215	-2.6457981e-05
52	0xb82f5396	-4.1801097e-05
53	0xb86175e0	-5.375396e-05
54	0xb8829648	-6.226875e-05
55	0xb88de5cc	-6.766207e-05
56	0xb8933df2	-7.0210444e-05
57	0xb8923a01	-6.9726266e-05
58	0xb8899b94	-6.561648e-05
59	0xb86d2c10	-5.654624e-05
60	0xb827acd0	-3.9976847e-05
61	0xb7766094	-1.4685229e-05
62	0xb6aa04f8	-5.0669732e-06
63	0x35361489	6.7830166e-07
64	0x373d624a	1.1288163e-05
65	0x3801cbea	3.0945906e-05
66	0x3848b1b2	4.7849207e-05
67	0x387c368d	6.0132286e-05
68	0x388f99ab	6.847394e-05
69	0x389a1d50	7.348752e-05
70	0x389e53ff	7.5496726e-05
71	0x389c5131	7.453783e-05
72	0x3892e9ae	7.005349e-05
73	0x388027c9	6.110926e-05
74	0x3842cccb	4.6443933e-05
75	0x37d37ad2	2.5210353e-05
76	0x350601ba	4.99214e-07
77	0xb7216691	-9.620228e-06
78	0xb71723c0	-9.008625e-06
79	0xb77632aa	-1.4674539e-05
80	0xb8574470	-5.1323732e-05
81	0xb89c2342	-7.445227e-05
82	0xb8a8813a	-8.0349346e-05
83	0xb89a7d6a	-7.3666524e-05
84	0xb86e7be3	-5.6859e-05
85	0xb8078849	-3.2313434e-05
86	0xb71fc122	-9.522106e-06
87	0xb6418a8a	-2.8839881e-06
88	0x368d48ff	4.2106253e-06
89	0x3739b54e	1.1069073e-05
90	0x3829ba6e	4.0466366e-05
91	0x38950183	7.105155e-05
92	0x38c3836d	9.3228045e-05
93	0x38db9571	0.000104705694
94	0x38d62d77	0.00010212784
95	0x38a1aef3	7.709665e-05
96	0x37dfb6d3	2.6668806e-05
97	0x3761dc7b	1.346238e-05
98	0x380386ef	3.13585e-05
99	0x37009a93	7.665384e-06
100	0xb7d1cb89	-2.500952e-05
101	0xb8552ef8	-5.08269e-05
102	0xb8910954	-6.915876e-05
103	0xb8ab515f	-8.169072e-05
104	0xb8bc9a2e	-8.993257e-05
105	0xb8c72adc	-9.4970426e-05
106	0xb8cc97b5	-9.755736e-05
107	0xb8ccfe03	-9.7747914e-05
108	0xb8c7cc70	-9.527139e-05
109	0xb8bb05a3	-8.917905e-05
110	0xb8a08d02	-7.655659e-05
111	0xb84d2326	-4.8908543e-05
112	0xb6859e73	-3.982155e-06
113	0x3646afef	2.9606706e-06
114	0x380ef9db	3.4088134e-05
115	0x387e305a	6.060335e-05
116	0x38a0c22f	7.665564e-05
117	0x38b5b8e2	8.66519e-05
118	0x38c2b4c4	9.284311e-05
119	0x38c9937f	9.6119e-05
120	0x38cb0124	9.680007e-05
121	0x38c6f636	9.487236e-05
122	0x38bbd6ca	8.9568624e-05
123	0x38a70eb0	7.965916e-05
124	0x3884890b	6.319777e-05
125	0x381ce7c6	3.7409154e-05
126	0x317da400	3.6909569e-09
127	0xb81745e7	-3.6066307e-05
128	0xb78e1407	-1.6937045e-05
129	0xb889d84b	-6.572957e-05
130	0xb908ca62	-0.00013045364
131	0xb91e1a00	-0.0001507774
132	0xb91e1346	-0.00015075234
133	0xb911cd01	-0.00013904647
134	0xb8f52842	-0.00011690009
135	0xb8ab465d	-8.1670216e-05
136	0xb80928c0	-3.2701297e-05
137	0xb6901148	-4.293546e-06
138	0x368d16e6	4.204793e-06
139	0x381d8e55	3.7564274e-05
140	0x38be8822	9.085263e-05
141	0x39079b9d	0.00012932574
142	0x39226905	0.00015488647
143	0x3932cecd	0.00017052442
144	0x39377758	0.00017496699
145	0x3925e2ec	0.00015820161
146	0x38bc3770	8.9748646e-05
147	0x383f3ef7	4.559659e-05
148	0x38680ac1	5.5323126e-05
149	0x36f2b446	7.2331486e-06
150	0xb80f6a50	-3.4192868e-05
151	0xb8830cdb	-6.248961e-05
152	0xb8aa5425	-8.121905e-05
153	0xb8c3c9bd	-9.335901e-05
154	0xb8d37691	-0.00010083349
155	0xb8dbf260	-0.000104878796
156	0xb8df0c81	-0.00010635798
157	0xb8dd0875	-0.000105396764
158	0xb8d5bfde	-0.000101923695
159	0xb8c83c90	-9.548024e-05
160	0xb8b0edb3	-8.436609e-05
161	0xb881591a	-6.167796e-05
162	0x367ff28e	3.8139146e-06
163	0x3762d504	1.3520246e-05
164	0x384dc218	4.9056573e-05
165	0x3880ac6e	6.135633e-05
166	0x386ea76a	5.689954e-05
167	0x38225dd6	3.87112e-05
168	0x37becd0b	2.2745246e-05
169	0x37477c91	1.1890327e-05
170	0x36909348	4.30868e-06
171	0xb5b40344	-1.3411995e-06
172	0xb6b79ff8	-5.472448e-06
173	0xb704ce90	-7.915907e-06
174	0xb70f073c	-8.525149e-06
175	0xb704039a	-7.868652e-06
176	0xb7141585	-8.826498e-06
177	0xb7b081fc	-2.1041364e-05
178	0xb7a60cf2	-1.979477e-05
179	0xb80b3a7e	-3.3194658e-05
180	0xb78a3e69	-1.6479944e-05
181	0xb6eb4ec7	-7.0127167e-06
182	0xb6b41ff1	-5.3681365e-06
183	0xb710c4d1	-8.628894e-06
184	0xb76d7862	-1.415433e-05
185	0xb79ecac7	-1.8929493e-05
186	0xb78e91b1	-1.6995562e-05
187	0xb6994f25	-4.568969e-06
188	0x36ad696d	5.168075e-06
189	0x3800804c	3.0637064e-05
190	0x380e75a9	3.3965018e-05
191	0x37daf40c	2.6101268e-05
192	0x378b3015	1.6592481e-05
193	0x371ee54f	9.470924e-06
194	0x3702f1c2	7.804892e-06
195	0x378094e0	1.5328114e-05
196	0x38117e1e	3.468815e-05
197	0x37eb78e8	2.8070484e-05
198	0x3755ff04	1.2755165e-05
199	0xb665e107	-3.4254642e-06
200	0xb67871d0	-3.7021127e-06
201	0xb60139d5	-1.925616e-06
202	0xb5a70319	-1.2443371e-06
203	0xb60e22ba	-2.1179862e-06
204	0xb68d5c3b	-4.2128645e-06
205	0xb6e994f7	-6.961283e-06
206	0xb727e426	-1.0007096e-05
207	0xb75ca4db	-1.3151405e-05
208	0xb78915ab	-1.6341763e-05
209	0xb7a1fdd6	-1.9310897e-05
210	0xb7b4a659	-2.1535134e-05
211	0xb7b5bba0	-2.1664251e-05
212	0xb71cb960	-9.341486e-06
213	0x36fae27b	7.4769464e-06
214	0x37c53dab	2.3512946e-05
215	0x37c99e97	2.4034916e-05
216	0x37af8284	2.0922402e-05
217	0x378c362e	1.671453e-05
218	0x374cb396	1.2201161e-05
219	0x37016f5c	7.714927e-06
220	0x365ee743	3.321519e-06
221	0xb5518fa0	-7.806757e-07
222	0xb68d0ad4	-4.203388e-06
223	0xb6d3cdab	-6.312233e-06
224	0xb6deaf52	-6.6365255e-06
225	0xb6b2c73b	-5.328007e-06
226	0xb69c77ca	-4.6631076e-06
227	0xb79b269c	-1.8495419e-05
228	0xb805426f	-3.1771542e-05
229	0xb8082139	-3.2455868e-05
230	0xb6d6ac8c	-6.397784e-06
231	0x36661c14	3.4289014e-06
232	0x368190f4	3.8613744e-06
233	0xb59d9196	-1.1739783e-06
234	0xb7195362	-9.138925e-06
235	0xb793e5b4	-1.763073e-05
236	0xb7b1876b	-2.1163103e-05
237	0xb6d9104f	-6.4690025e-06
238	0x36e4b179	6.81559e-06
239	0x38088acd	3.2554195e-05
240	0x37ea79eb	2.7951746e-05
241	0x378409ed	1.5740248e-05
242	0x368429fb	3.9387937e-06
243	0xb69733ea	-4.5061943e-06
244	0xb6e8497b	-6.922693e-06
245	0x3572a0cc	9.0386015e-07
246	0x37ea11d0	2.7903268e-05
247	0x38044f76	3.1545256e-05
248	0x371e409e	9.432579e-06
249	0xb558c806	-8.0757343e-07
250	0x3615ddf4	2.2331924e-06
251	0x36a398a0	4.8755464e-06
252	0x36b6c173	5.446543e-06
253	0x368602b4	3.993826e-06
254	0x358e4db2	1.0602437e-06
255	0xb6324429	-2.6563741e-06

encoder.0.bias f4 [128]
0	0x37dedf7e	2.6568534e-05
1	0x38314499	4.2263975e-05
2	0x394500d8	0.00018787698
3	0xb8ac3f00	-8.213334e-05
4	0xb814a5ef	-3.5440487e-05
5	0xb9536e2f	-0.00020163575
6	0xb82c2a6f	-4.1047515e-05
7	0x38392932	4.4145803e-05
8	0xb836bf6f	-4.3570468e-05
9	0xb89c8cc1	-7.464877e-05
10	0xbead19fb	-0.33808884
11	0xbeaa829d	-0.33302775
12	0xbbbd061b	-0.00576855
13	0x385c4549	5.2516614e-05
14	0xb80b01f0	-3.3141987e-05
15	0x38d8507c	0.00010314674
16	0x3f2cc4dd	0.6748789
17	0xb8a67d7c	-7.93887e-05
18	0x38a1b19c	7.7101606e-05
19	0xb70bd9cb	-8.3357545e-06
20	0xbc1779d7	-0.0092453575
21	0x39045d30	0.00012623216
22	0xb9cb9337	-0.0003882886
23	0xb8e8552a	-0.00011078485
24	0xb8a86246	-8.029169e-05
25	0x38faa236	0.00011951143
26	0x36836c32	3.9167e-06
27	0xbec54eba	-0.38536626
28	0x391fcffe	0.00015240905
29	0x38fb87c2	0.000119938995
30	0xb78259cd	-1.5539024e-05
31	0xb8d1d299	-0.000100051235
32	0xb9753a78	-0.00023386802
33	0x38793c96	5.942265e-05
34	0xb91e2c7d	-0.00015084627
35	0xbc06ab85	-0.008219604
36	0x38283ea5	4.0112664e-05
37	0x38ea10fa	0.000111611516
38	0x38a99fd3	8.0883176e-05
39	0x37f94754	2.9716328e-05
40	0x37872e8a	1.6114926e-05
41	0xb6875d9a	-4.03421e-06
42	0xbb31bf00	-0.0027121902
43	0x3876ef6a	5.8873942e-05
44	0xb8bdd372	-9.051607e-05
45	0xb80cc129	-3.3558495e-05
46	0x3eb19666	0.34685057
47	0xb678ed80	-3.7093123e-06
48	0xb7d4acb9	-2.53528e-05
49	0x39325044	0.00017005304
50	0xb78de8ec	-1.6916973e-05
51	0xb8e1a466	-0.00010759458
52	0xbec5490e	-0.385323
53	0xbc180d88	-0.00928057
54	0x390681b0	0.00012827548
55	0x3926c098	0.0001590274
56	0xbeb0ff72	-0.3456989
57	0x3822fe72	3.886078e-05
58	0x3f84ce5d	1.0375477
59	0xb87639b5	-5.8704714e-05
60	0x39d98455	0.0004148806
61	0x386e811d	5.6863868e-05
62	0x37b8f82b	2.2050071e-05
63	0xb9c097af	-0.00036734107
64	0xb890fd18	-6.9135975e-05
65	0x37bc21f9	2.2427166e-05
66	0xbec49729	-0.38396576
67	0xb8cd7810	-9.797525e-05
68	0xb7c521ff	-2.350006e-05
69	0xb95b3625	-0.00020905638
70	0xb9ac281e	-0.00032836286
71	0x39bbb95c	0.00035805523
72	0x38eff2d8	0.00011441641
73	0xb8b39361	-8.5628366e-05
74	0xb9898278	-0.00026227883
75	0xb828d082	-4.024851e-05
76	0x376f363a	1.4258136e-05
77	0xbeb261a4	-0.3484012
78	0x38782d9f	5.9170296e-05
79	0xb913d1a6	-0.00014097113
80	0xb8350538	-4.3158623e-05
81	0x3f8988e4	1.0744901
82	0x392f9379	0.00016744238
83	0xb6f7e902	-7.3882993e-06
84	0x383d5c39	4.5147e-05
85	0x396f6f55	0.0002283429
86	0xbc0d4f55	-0.008624871
87	0xb81d6442	-3.752509e-05
88	0xbec5514f	-0.38538596
89	0xbeaf27d2	-0.34210068
90	0xbeb34e65	-0.35020748
91	0xb95ced77	-0.00021069298
92	0xb7f960e5	-2.9728233e-05
93	0x3895f1f7	7.149943e-05
94	0x388bdc8e	6.669118e-05
95	0xb893cd50	-7.047749e-05
96	0x3ef9c046	0.48779505
97	0xb911f2fa	-0.00013918793
98	0xb9ca1c57	-0.00038549557
99	0x380e7db7	3.397252e-05
100	0x38861286	6.393068e-05
101	0xb9132db8	-0.00014036044
102	0xb84488fd	-4.685762e-05
103	0x386fb91a	5.715443e-05
104	0x39672907	0.0002204516
105	0xbec54ff5	-0.38537565
106	0xb93ae265	-0.00017822681
107	0xbc11d296	-0.008900305
108	0x39032fb6	0.00012510907
109	0x36d69900	6.3955085e-06
110	0x381bc80f	3.71412e-05
111	0x39c995ba	0.00038449263
112	0xbc2bc126	-0.010483062
113	0xb7b7d182	-2.191286e-05
114	0x37dbf114	2.6219095e-05
115	0x3874c0aa	5.8353566e-05
116	0x38e12a24	0.00010736685
117	0xbec4bb6f	-0.3842425
118	0xb8375ee5	-4.3718977e-05
119	0xb80b81e1	-3.326114e-05
120	0x3832fb6b	4.267266e-05
121	0x38eaeb10	0.00011201773
122	0x37e36030	2.71053e-05
123	0xb843e7cc	-4.67075e-05
124	0x37e3b488	2.7144575e-05
125	0xb5d1dbac	-1.5635646e-06
126	0xb90c0c01	-0.00013355912
127	0x39b6b5ea	0.00034849282

encoder.2.weight f4 [64, 128]
0	0xb82181ce	-3.850628e-05
1	0xb77f71db	-1.52256935e-05
2	0xb877fc3a	-5.9124293e-05
3	0x391703e0	0.00014401926
4	0x3928b595	0.00016089373
5	0x38f01efb	0.00011449862
6	0xb9365dd3	-0.00017391825
7	0xb942d07e	-0.00018578951
8	0xb91bdf93	-0.0001486524
9	0xb8270eb7	-3.9829607e-05
10	0x3c354c22	0.011065515
11	0x3c314894	0.010820527
12	0x3cb53609	0.022120493
13	0xb93363f2	-0.00017108003
14	0xb92c110b	-0.00016409547
15	0xb8ffdaeb	-0.00012200124
16	0x3d43cf54	0.047805145
17	0x384c5ddb	4.87248e-05
18	0xb8d37e82	-0.00010084828
19	0xb82f1d6e	-4.175066e-05
20	0x3be44308	0.0069659986
21	0x37cb2575	2.4216928e-05
22	0x390e7001	0.000135839
23	0xb85c77a0	-5.2563497e-05
24	0x391d495b	0.00015000014
25	0xb52f7c2e	-6.5373285e-07
26	0xb94bc84b	-0.00019434204
27	0x3c5af1cf	0.013363316
28	0x388b1abc	6.633016e-05
29	0xb7483c60	-1.1934986e-05
30	0x38d346b1	0.00010074431
31	0xb82e897e	-4.1612882e-05
32	0x3904bbbd	0.00012658439
33	0x38ac0d59	8.204085e-05
34	0xb7c705b9	-2.3725313e-05
35	0x3c8f3f8a	0.017486352
36	0xb916a94e	-0.00014368186
37	0x3895c54c	7.141623e-05
38	0x378376b0	1.5671685e-05
39	0x3932def5	0.00017058461
40	0xb6782325	-3.6975337e-06
41	0xb92dd158	-0.00016576552
42	0xbb74e1df	-0.0037366075
43	0xb916228f	-0.00014317989
44	0x37959624	1.7832099e-05
45	0xb93bdd40	-0.00017916132
46	0x3c464a6d	0.012102705
47	0x38b84037	8.785765e-05
48	0xb93d417e	-0.00018048842
49	0xb83f7a83	-4.5652047e-05
50	0x36c049bf	5.730631e-06
51	0x386913a9	5.556984e-05
52	0x3c5ae917	0.013361237
53	0x3be1395a	0.006873292
54	0xb6e0dc13	-6.70134e-06
55	0x380897c1	3.256626e-05
56	0x3c3b5793	0.011434454
57	0x38168d71	3.5894514e-05
58	0x3cbecd2a	0.02329119
59	0x38eb5b31	0.00011222659
60	0xb918a25d	-0.00014556335
61	0x370c7f67	8.374313e-06
62	0xb7386e7e	-1.0992981e-05
63	0x3905dabf	0.00012765358
64	0x38a40b43	7.822227e-05
65	0xb88a77f4	-6.602696e-05
66	0x3c59d61e	0.013295678
67	0xb91795bd	-0.00014456264
68	0xb94b57db	-0.00019392317
69	0x3859ad12	5.1898016e-05
70	0x39037523	0.0001253677
71	0xb76006ee	-1.3353054e-05
72	0xb96d34ab	-0.00022621702
73	0x38b955c1	8.83746e-05
74	0x38caba5e	9.666824e-05
75	0x393f969c	0.00018271286
76	0x3901062d	0.000123047
77	0x3c3d7e49	0.011565753
78	0x3691d13e	4.3456957e-06
79	0xb7d46022	-2.5317135e-05
80	0x395c6179	0.00021017146
81	0xbd2f1d1b	-0.042752367
82	0xb88b5f40	-6.645778e-05
83	0x39477ee0	0.00019025384
84	0xb880437c	-6.1160856e-05
85	0x37a30dd7	1.9437559e-05
86	0x3c0b79ae	0.008512897
87	0xb95490e6	-0.00020271874
88	0x3c5af5dc	0.0133642815
89	0x3c387bab	0.0112599535
90	0x3c3eedfb	0.011653419
91	0xb86dee34	-5.6727047e-05
92	0x37df35b2	2.6608675e-05
93	0xb875348c	-5.846149e-05
94	0x37f1e116	2.8834253e-05
95	0xb91ed003	-0.00015145545
96	0xbe12ca7d	-0.14335056
97	0xb8142aad	-3.5325695e-05
98	0x3923979e	0.00015601373
99	0xb6dbe0d6	-6.552883e-06
100	0x372b2dd2	1.0203063e-05
101	0x39208d72	0.00015311482
102	0xb81948f1	-3.6545975e-05
103	0xb91f88f7	-0.00015214445
104	0x369e95ef	4.7262215e-06
105	0x3c5af3d9	0.013363802
106	0x38d0d811	9.9584584e-05
107	0x3c02ac84	0.007975701
108	0xb7114d29	-8.660639e-06
109	0x393eeb49	0.00018207463
110	0xb7eda26b	-2.8328233e-05
111	0xb9080db1	-0.00012975071
112	0x3b2ed3da	0.0026676566
113	0xb8909220	-6.893673e-05
114	0xb929dc33	-0.00016199127
115	0x38b08959	8.417917e-05
116	0xb85eed69	-5.315003e-05
117	0x3c5a0e15	0.0133090215
118	0xb9479347	-0.00019032984
119	0xb94c9e1b	-0.00019513855
120	0x388393ee	6.274121e-05
121	0xb8d42d17	-0.000101173464
122	0xb9532af3	-0.00020138528
123	0x390ec8e3	0.00013617011
124	0xb866164a	-5.485703e-05
125	0x38763041	5.869591e-05
126	0x3900b4a1	0.00012274321
127	0xb8a55d4e	-7.8851925e-05
128	0x380605d2	3.195351e-05
129	0xb8222ffe	-3.8668506e-05
130	0xb8841a00	-6.2990934e-05
131	0x37855a16	1.5896785e-05
132	0x38d0cf24	9.956796e-05
133	0xb8d15bdd	-9.9830075e-05
134	0xb8a329e1	-7.780246e-05
135	0xb8f4b823	-0.00011669125
136	0xb88eaa7f	-6.802845e-05
137	0xb5c49b18	-1.4648276e-06
138	0x3d5569e3	0.052102935
139	0x3d52a3be	0.051425688
140	0xbcb818fa	-0.022472847
141	0xb864a26f	-5.4510714e-05
142	0xb7eea123	-2.8446846e-05
143	0xb7e5667d	-2.7346652e-05
144	0xbdc44a4c	-0.095844835
145	0xb79ad6dd	-1.8458284e-05
146	0xb851cfd2	-5.002303e-05
147	0x373bf41a	1.1202903e-05
148	0xbc2ee092	-0.010673659
149	0xb8db0b21	-0.00010444807
150	0xb8c0f6be	-9.201233e-05
151	0xb89e5209	-7.549307e-05
152	0x37148df1	8.854536e-06
153	0xb8803117	-6.112659e-05
154	0xb85a0940	-5.1983865e-05
155	0x3d6e638f	0.058200415
156	0xb90ec5ae	-0.00013615817
157	0x38e07c7b	0.00010704339
158	0x37da045c	2.5989655e-05
159	0xb6b2e4f8	-5.331469e-06
160	0xb90ad366	-0.00013239458
161	0xb7f4cd42	-2.9182647e-05
162	0xb7207990	-9.565047e-06
163	0xbc739049	-0.014865943
164	0xb865ac25	-5.4758177e-05
165	0x38cb7387	9.701313e-05
166	0xb63a703c	-2.7781489e-06
167	0x38919dd2	6.943535e-05
168	0xb781760b	-1.5432966e-05
169	0xb8b25cba	-8.504973e-05
170	0x3a3a43ca	0.0007105438
171	0xb86d8043	-5.6624656e-05
172	0xb73cb670	-1.124815e-05
173	0xb8986822	-7.267321e-05
174	0xbe43a3a7	-0.19105397
175	0x373bf61b	1.12033695e-05
176	0xb8d422c1	-0.00010115421
177	0x390627e4	0.00012794096
178	0x380047ce	3.058445e-05
179	0xb7b1ec2d	-2.1210022e-05
180	0x3d6e5e1a	0.05819521
181	0xbc2ecc42	-0.010668816
182	0x36575af2	3.2090434e-06
183	0xb8a96a8a	-8.0783924e-05
184	0x3d598ced	0.053112913
185	0x383ea734	4.545525e-05
186	0xbe219829	-0.157807
187	0x37d075fe	2.4850477e-05
188	0x3976b9a8	0.0002352955
189	0x389c218f	7.4449104e-05
190	0x3901cfee	0.00012379859
191	0xb844d7a7	-4.6930883e-05
192	0x383e27e9	4.53367e-05
193	0xb5321e3e	-6.6354175e-07
194	0x3d6dad8d	0.05802684
195	0x3930502f	0.00016814539
196	0xb882cae2	-6.236673e-05
197	0xb8b816fd	-8.7780856e-05
198	0xb8c14367	-9.215512e-05
199	0xb89f32ef	-7.591198e-05
200	0x37cea792	2.4635145e-05
201	0x382faa4d	4.1881856e-05
202	0xb92f8316	-0.00016738134
203	0x3861e43b	5.3856736e-05
204	0xb7a00d0b	-1.907956e-05
205	0x3d5b0372	0.053470083
206	0xb87c9081	-6.021606e-05
207	0x370030f5	7.640793e-06
208	0x38d09175	9.9453064e-05
209	0xbd959bcf	-0.07305109
210	0x38368a8a	4.3521206e-05
211	0x38b16888	8.459488e-05
212	0xb8600c7f	-5.34174e-05
213	0xb86bcd13	-5.6219356e-05
214	0xbc5209b3	-0.012819695
215	0xb8ed6c30	-0.00011321192
216	0x3d6e663e	0.058202974
217	0x3d579a0f	0.052637156
218	0x3d5bfb59	0.0537065
219	0x3902758c	0.00012441556
220	0xb6e6b76d	-6.8758877e-06
221	0x3831ce66	4.2392312e-05
222	0x38009585	3.065683e-05
223	0xb7ed345c	-2.8276983e-05
224	0xbd9f2414	-0.07770553
225	0xb508c8bc	-5.0956055e-07
226	0xb9325b4f	-0.00017009418
227	0xb45ac184	-2.0373233e-07
228	0xb8cc5414	-9.743139e-05
229	0xb9116c0b	-0.00013868527
230	0xb74975aa	-1.2007929e-05
231	0xb85b8178	-5.2334246e-05
232	0xb8a01050	-7.632433e-05
233	0x3d6e64e0	0.05820167
234	0xb94378fe	-0.00018641722
235	0xbc420fb4	-0.011844564
236	0x3777463a	1.4738698e-05
237	0x38ddc42a	0.000105746396
238	0xb7c5b87a	-2.3570134e-05
239	0x38721a75	5.7721936e-05
240	0xbbbad076	-0.00570112
241	0x37a9585d	2.0187517e-05
242	0xb82dc228	-4.1427236e-05
243	0xb7b60abe	-2.1701093e-05
244	0x37948bb0	1.7708022e-05
245	0x3d6dd1f5	0.05806156
246	0xb8923175	-6.9710346e-05
247	0xb8cf72af	-9.891891e-05
248	0x382308c3	3.887039e-05
249	0xb8539fad	-5.045503e-05
250	0xb8be2dd0	-9.068439e-05
251	0x3890a810	6.897759e-05
252	0x37923f0c	1.7433915e-05
253	0x383043ab	4.202469e-05
254	0x37f6bf14	2.9414463e-05
255	0x374aac0d	1.2080197e-05

encoder.2.bias f4 [64]
0	0xbd0fd367	-0.03511372
1	0xbdd47adc	-0.10374996
2	0xbdd46da5	-0.103724755
3	0xbd5beb75	-0.053691346
4	0xbd664aa8	-0.05622354
5	0xbd257694	-0.040396288
6	0xbd4242a9	-0.047426853
7	0xbdd470e8	-0.10373098
8	0xbdd48256	-0.10376422
9	0x3db7a1c7	0.089664035
10	0xbcfa48f4	-0.030552365
11	0xbdd474e9	-0.10373861
12	0xbdd480e2	-0.10376145
13	0xbd03458d	-0.03204875
14	0xbcf14abc	-0.029454581
15	0xbd1978fc	-0.037468895
16	0x3ed814bf	0.42203328
17	0xbdd492cc	-0.10379562
18	0xbdd48a5b	-0.10377952
19	0xbd6bc32c	-0.057559177
20	0xbd6528a3	-0.055946957
21	0x3f1394c0	0.5764885
22	0xbd3307ba	-0.04370854
23	0x3dbba80c	0.09162912
24	0xbdd479fd	-0.1037483
25	0xbdd494a3	-0.10379913
26	0xbd695b02	-0.056971557
27	0xbcfd3756	-0.030910175
28	0xbdd4832e	-0.10376583
29	0xbd62302f	-0.055221733
30	0xbce03360	-0.027368248
31	0x3dd6746c	0.104714245
32	0xbdd47ab3	-0.103749655
33	0x3de132c9	0.109960146
34	0x3e37598e	0.17905256
35	0x3dd1941e	0.10233329
36	0xbd166d68	-0.03672543
37	0xbd60ba7b	-0.05486534
38	0xbd6c627f	-0.05771112
39	0xbdd48a26	-0.10377912
40	0xbd6e8fdc	-0.058242664
41	0xbdd4897e	-0.10377787
42	0xbdd46630	-0.10371053
43	0xbdd47a5a	-0.10374899
44	0xbdd49bf4	-0.10381308
45	0xbd010aa8	-0.031504303
46	0x3ea4ab33	0.32161865
47	0xbd6b918d	-0.057511855
48	0xbd6d4370	-0.05792564
49	0xbd1bf7e9	-0.038078222
50	0xbdd46ff3	-0.10372915
51	0x3e8daac4	0.27669346
52	0xbdd4135d	-0.10355256
53	0x3b2a297f	0.0025964675
54	0x3f2ac9af	0.66713995
55	0xbd242e36	-0.040083133
56	0xbd3d1d4e	-0.046170525
57	0xbd6b2121	-0.05740464
58	0x3e3f44d0	0.18678594
59	0xbd0bdfca	-0.03414897
60	0xbd715ccd	-0.058926392
61	0xbdd47b23	-0.10375049
62	0xbd340c3b	-0.043956976
63	0xbdd493bc	-0.103797406

encoder.4.weight f4 [16, 64]
0	0x3d25edd1	0.040510003
1	0xbc8dc73a	-0.017306913
2	0xbc8dc6c8	-0.0173067
3	0xbbc4d5b9	-0.006006923
4	0xbbf1ae4a	-0.007375513
5	0x3ccedac7	0.025250806
6	0xbb416295	-0.0029508222
7	0xbc8dc6f8	-0.01730679
8	0xbc8dc7c2	-0.017307166
9	0x3f95536f	1.1666087
10	0x3d2b783e	0.04186272
11	0xbc8dc717	-0.017306847
12	0xbc8dc7b5	-0.017307142
13	0x3d2bcce5	0.04194345
14	0x3d2b6ddf	0.041852828
15	0x3d197d60	0.037473083
16	0x3e38be96	0.18041453
17	0xbc8dc866	-0.017307471
18	0xbc8dc805	-0.01730729
19	0xbc079e5f	-0.008277505
20	0xbbf4885a	-0.0074625434
21	0xbc9970e7	-0.018730594
22	0x3a964ac1	0.001146637
23	0xbd69d808	-0.05709079
24	0xbc8dc744	-0.017306931
25	0xbc8dc87f	-0.017307518
26	0xbc00cb50	-0.0078609735
27	0x3d1b4a6e	0.03791278
28	0xbc8dc7aa	-0.017307121
29	0xbbde2d49	-0.0067803008
30	0x3d1c2faa	0.038131393
31	0xbd33e5e9	-0.04392043
32	0xbc8dc73f	-0.017306922
33	0xbd85c706	-0.06532101
34	0xbb59b068	-0.0033216719
35	0xbcffd59c	-0.031229787
36	0x3d2191aa	0.039445557
37	0xbbdc1882	-0.0067167887
38	0xbc07f90b	-0.008299123
39	0xbc8dc7fe	-0.017307278
40	0xbc0d34da	-0.008618558
41	0xbc8dc7f0	-0.017307252
42	0xbc8dc654	-0.017306484
43	0xbc8dc744	-0.017306931
44	0xbc8dc8b8	-0.017307624
45	0x3d2cbc44	0.04217173
46	0xbdab7350	-0.083716035
47	0xbc062187	-0.0081867045
48	0xbc0e1aac	-0.008673351
49	0x3d11830d	0.03552537
50	0xbc8dc6db	-0.017306736
51	0xbd90a301	-0.070623405
52	0xbc8dc23f	-0.017304538
53	0x3e9bcb12	0.30428368
54	0x3c2f8481	0.010712744
55	0x3cdfb846	0.027309548
56	0xba2d600a	-0.0006613737
57	0xbc0495fb	-0.008092399
58	0x3b89ede1	0.0042092656
59	0x3d20ea3a	0.039285876
60	0xbc0f3210	-0.008739963
61	0xbc8dc745	-0.017306933
62	0x3b384b4a	0.0028121048
63	0xbc8dc880	-0.01730752
64	0xbcac7cde	-0.021055635
65	0xbe5e1689	-0.21688284
66	0xbe5df326	-0.21674785
67	0xbd5b42a8	-0.053530365
68	0xbd6cebc7	-0.057842042
69	0xbcde2278	-0.027116045
70	0xbd349027	-0.044082787
71	0xbe5dfbe8	-0.21678126
72	0xbe5e2985	-0.21695526
73	0x3d3b4a12	0.045724936
74	0xbc844845	-0.016147742
75	0xbe5e06bd	-0.21682258
76	0xbe5e2575	-0.21693976
77	0xbc91d2f5	-0.017800787
78	0xbc74a5f3	-0.0149321435
79	0xbcc19f09	-0.023635404
80	0x3f06726e	0.52518356
81	0xbe5e5547	-0.21712218
82	0xbe5e3ecd	-0.21703644
83	0xbd76b9bc	-0.060235724
84	0xbd6b2d50	-0.05741626
85	0x3ec8a5b2	0.39188915
86	0xbd1d8cf6	-0.03846451
87	0x3d308f7e	0.043105595
88	0xbe5e13d8	-0.21687257
89	0xbe5e5a37	-0.21714102
90	0xbd723828	-0.059135586
91	0xbc861180	-0.016365767
92	0xbe5e2bba	-0.21696368
93	0xbd65b566	-0.0560812
94	0xbc4be917	-0.01244571
95	0x3d76dbe6	0.060268305
96	0xbe5e161f	-0.21688126
97	0x3d67ad19	0.056561563
98	0x3e71b08a	0.236025
99	0x3d6d6854	0.057960823
100	0xbcbaef57	-0.022819204
101	0xbd6351d7	-0.05549797
102	0xbd77b2e0	-0.060473323
103	0xbe5e3e4f	-0.21703456
104	0xbd7be27d	-0.061495293
105	0xbe5e3c5c	-0.21702713
106	0xbe5ddfa5	-0.21667345
107	0xbe5e14f1	-0.21687676
108	0xbe5e6e1a	-0.21721688
109	0xbc8d0341	-0.017213466
110	0x3ed84133	0.42237243
111	0xbd764378	-0.060122937
112	0xbd796d1c	-0.06089507
113	0xbcc7f13f	-0.024407027
114	0xbe5df98e	-0.21677229
115	0x3ed6faaf	0.4198813
116	0xbe5d0273	-0.21582966
117	0xbd6d42aa	-0.057924904
118	0x3eced6a0	0.4039812
119	0xbcdb1fa5	-0.026748488
120	0xbd2b9ccc	-0.04189758
121	0xbd75632a	-0.059909023
122	0x3e802388	0.25027108
123	0xbca37a6f	-0.019955842
124	0xbd808543	-0.06275418
125	0xbe5e1737	-0.21688543
126	0xbd1d1bc4	-0.038356557
127	0xbe5e578e	-0.21713087
128	0xbd76c5ba	-0.06024716
129	0xbdb82cfe	-0.089929566
130	0xbdb82551	-0.089914925
131	0xbd32cde1	-0.043653373
132	0xbd3811a6	-0.044938706
133	0xbd818c7b	-0.06325623
134	0xbd269367	-0.040667918
135	0xbdb82743	-0.089918636
136	0xbdb83142	-0.0899377
137	0x3da158bd	0.078782536
138	0xbd65e60f	-0.056127604
139	0xbdb8299e	-0.08992313
140	0xbdb83066	-0.08993606
141	0xbd6ab280	-0.057299137
142	0xbd62486f	-0.05524486
143	0xbd7ce491	-0.061741415
144	0xbde03dde	-0.109493
145	0xbdb83b0a	-0.08995636
146	0xbdb8362a	-0.08994706
147	0xbd3c0bbd	-0.045909632
148	0xbd37fbc6	-0.044917844
149	0x3e8cb80b	0.27484164
150	0xbd245329	-0.04011837
151	0x3e1fed4c	0.15617865
152	0xbdb82c72	-0.08992852
153	0xbdb83c25	-0.08995847
154	0xbd3a6f1f	-0.04551613
155	0xbd69c085	-0.057068367
156	0xbdb831c0	-0.08993864
157	0xbd35d4dd	-0.044392455
158	0xbd5d2e04	-0.053998962
159	0x3e17bd48	0.14818299
160	0xbdb82cea	-0.08992942
161	0x3e33ce2f	0.17559122
162	0x3d4c8ec8	0.049940854
163	0x3e1631f9	0.146675
164	0xbd7b940e	-0.061420493
165	0xbd356ce6	-0.044293307
166	0xbd3c71ba	-0.046006896
167	0xbdb8360d	-0.08994684
168	0xbd3d9ee9	-0.046294127
169	0xbdb835a7	-0.08994608
170	0xbdb820bc	-0.089906186
171	0xbdb82ca1	-0.08992887
172	0xbdb840b1	-0.08996714
173	0xbd68b8ba	-0.056816794
174	0xbe266970	-0.16251159
175	0xbd3bcf70	-0.045852125
176	0xbd3e40ba	-0.046448447
177	0xbd7c9c94	-0.061672762
178	0xbdb826b1	-0.08991755
179	0x3da3ea6e	0.08003698
180	0xbdb7edc4	-0.08980897
181	0x3e2d86e9	0.16945995
182	0x3ebb55af	0.3658881
183	0xbd812bbb	-0.06307169
184	0xbd26e36e	-0.040744238
185	0xbd3b8493	-0.04578073
186	0x3d649b18	0.05581197
187	0xbd74772d	-0.059683967
188	0xbd3e1347	-0.046405103
189	0xbdb82d27	-0.08992987
190	0xbd29be60	-0.04144132
191	0xbdb83b8f	-0.08995735
192	0xbcd218f8	-0.025646672
193	0xbe47e0c2	-0.19519332
194	0xbe47c66d	-0.19509287
195	0xbd55d8ff	-0.052208897
196	0xbd65a7ac	-0.056068107
197	0xbcffa3c1	-0.031206014
198	0xbd32c449	-0.043644223
199	0xbe47ccc9	-0.19511713
200	0xbe47eec6	-0.19524679
201	0x3d405e94	0.046965197
202	0xbcab75c4	-0.020930178
203	0xbe47d4d1	-0.19514777
204	0xbe47ebbc	-0.1952352
205	0xbcb83f5d	-0.022491151
206	0xbca20a00	-0.019780159
207	0xbce5bd31	-0.028044315
208	0x3edcfc8c	0.43161428
209	0xbe480f31	-0.19537045
210	0xbe47fee1	-0.19530822
211	0xbd6ec296	-0.05829104
212	0xbd644987	-0.055734184
213	0x3ebdc0d7	0.37061188
214	0xbd1e1f5e	-0.038604133
215	0x3d5e2ac7	0.054240014
216	0xbe47dec8	-0.19518578
217	0xbe4812ca	-0.19538417
218	0xbd6aa88e	-0.057289653
219	0xbcadf67d	-0.021235699
220	0xbe47f06d	-0.19525309
221	0xbd5f2d7c	-0.054486737
222	0xbc8f54a3	-0.017496413
223	0x3d8c20d5	0.068422
224	0xbe47e06b	-0.19519202
225	0x3d8b5215	0.06802765
226	0x3e577425	0.210404
227	0x3d87afa5	0.066252984
228	0xbcdfaaa5	-0.02730305
229	0xbd5d2ab8	-0.053995818
230	0xbd6fa881	-0.058510307
231	0xbe47fe99	-0.19530715
232	0xbd73548f	-0.059406813
233	0xbe47fd06	-0.19530115
234	0xbe47b7f2	-0.19503763
235	0xbe47df6d	-0.19518824
236	0xbe4821a9	-0.1954409
237	0xbcb3a276	-0.021928053
238	0x3ead4a78	0.33845878
239	0xbd6e4f51	-0.05818111
240	0xbd71b51f	-0.05901062
241	0xbceb1913	-0.02869848
242	0xbe47caf8	-0.1951102
243	0x3ebc70a2	0.36804682
244	0xbe47115f	-0.1944022
245	0xbd1c5a36	-0.03817197
246	0x3ec78c7a	0.38974363
247	0xbcfce990	-0.03087309
248	0xbd2ad651	-0.041708294
249	0xbd6d84b4	-0.057987884
250	0x3e65bea3	0.22436003
251	0xbcc9d136	-0.024635892
252	0xbd778034	-0.060425
253	0xbe47e151	-0.19519545
254	0xbd1e32ad	-0.038622547
255	0xbe4810c5	-0.19537647

encoder.4.bias f4 [16]
0	0x3c914cb8	0.017736778
1	0x3e952e3f	0.29136845
2	0x3df0a639	0.117504545
3	0x3e8678dd	0.26264086
4	0x3eadc9b5	0.33942953
5	0xbad40776	-0.001617654
6	0x3e88adfb	0.26695237
7	0x3df18d94	0.11794582
8	0x37a730e7	1.9930723e-05
9	0x3cc0ace5	0.023519943
10	0x371de4e2	9.41122e-06
11	0x3e448e45	0.19194897
12	0x3e485e46	0.19567212
13	0x3e522287	0.20520984
14	0x371df97f	9.41602e-06
15	0x370c0a9c	8.3471205e-06

decoder.0.weight f4 [128, 17]
0	0xbe26453e	-0.16237351
1	0xbdc224dd	-0.09479687
2	0x3e11e840	0.14248753
3	0xbd3135fd	-0.043264378
4	0x3dec4b13	0.11537757
5	0x3e3a7ac5	0.18210895
6	0x3dffcf78	0.124907434
7	0x3df504ee	0.11963831
8	0xbceab62f	-0.028651325
9	0xb8acab20	-8.233474e-05
10	0xbdc5075c	-0.09620544
11	0x3784b2a2	1.5818809e-05
12	0x3c8a1234	0.016854383
13	0x3d4069b8	0.04697582
14	0x3d688702	0.05676938
15	0x3793d869	1.762454e-05
16	0x369e03a9	4.709193e-06
17	0x36f1312d	7.1880845e-06
18	0x39a5f293	0.00031651984
19	0x36306b81	2.628862e-06
20	0x38634bdc	5.4191667e-05
21	0x3758134f	1.2879099e-05
22	0xb75610bd	-1.2759291e-05
23	0xb9822be2	-0.00024828227
24	0x373da4ce	1.1303649e-05
25	0x384da571	4.9029888e-05
26	0x33d33136	9.8344046e-08
27	0xb83db4a5	-4.522935e-05
28	0xb50ed2bd	-5.3205787e-07
29	0x3841fb08	4.6248577e-05
30	0x3813f0ce	3.5271798e-05
31	0x38084558	3.2489508e-05
32	0xb501332e	-4.813072e-07
33	0xb527d419	-6.252099e-07
34	0x3ea7d27f	0.32777783
35	0x3e70d9d5	0.23520596
36	0xbe663ccf	-0.22484134
37	0xbdbe3dff	-0.092891686
38	0xbe50082c	-0.20315617
39	0xbe859449	-0.26089695
40	0x3ce70396	0.028199952
41	0xbe535cac	-0.2064082
42	0xbdc355b0	-0.09537828
43	0xb939004c	-0.00017643085
44	0xbd4e9dee	-0.050443582
45	0xb8fa0302	-0.00011921489
46	0xbe1738e5	-0.14767797
47	0xbe1cade7	-0.15300713
48	0xbe23ea78	-0.16007411
49	0xb86ebc58	-5.691903e-05
50	0xb8a95561	-8.074451e-05
51	0x3671bf46	3.6023134e-06
52	0xb81f8eeb	-3.8041657e-05
53	0x375100f0	1.2457589e-05
54	0xb85fff2e	-5.3404998e-05
55	0x369a9bf6	4.607714e-06
56	0x37b80c08	2.1940112e-05
57	0x390b5e7d	0.00013291273
58	0x36c60ab1	5.9021045e-06
59	0xb83f3560	-4.5587658e-05
60	0xb3e65301	-1.0725308e-07
61	0xb899d4e4	-7.3352625e-05
62	0x33693441	5.4297065e-08
63	0xb80d2480	-3.3651013e-05
64	0xb799b3ad	-1.832269e-05
65	0xb7794e7e	-1.4859832e-05
66	0x33ad1531	8.059795e-08
67	0x32d82853	2.5164047e-08
68	0x350e182c	5.2934297e-07
69	0x38fb2ead	0.00011977307
70	0x388a7d97	6.603746e-05
71	0xb7d824c9	-2.5766336e-05
72	0x3883308a	6.255608e-05
73	0x388b4ccd	6.642342e-05
74	0xb99fe0dc	-0.00030494377
75	0x3884c478	6.330846e-05
76	0xb767af53	-1.3809494e-05
77	0xb4df156e	-4.155258e-07
78	0xb987e19c	-0.000259173
79	0x33775613	5.7587453e-08
80	0x37a0883d	1.9136927e-05
81	0x382bdf91	4.097779e-05
82	0x383e0f15	4.5313576e-05
83	0xb4d1d896	-3.908687e-07
84	0xb2e62dc6	-2.679634e-08
85	0xb82fbe01	-4.1900206e-05
86	0x38977017	7.2211194e-05
87	0x388f95f0	6.8466994e-05
88	0xb55470f3	-7.9140517e-07
89	0x38859ece	6.371514e-05
90	0x38993dae	7.307097e-05
91	0xb94742fc	-0.00019003073
92	0x38876df2	6.4577805e-05
93	0x371516f6	8.886438e-06
94	0x304dcdc0	7.4870954e-10
95	0xb919bb2b	-0.00014660943
96	0xb4c0e154	-3.5926735e-07
97	0x37f3f95c	2.9083974e-05
98	0x383e394f	4.5352903e-05
99	0x384be092	4.860812e-05
100	0xb4f65cac	-4.5888498e-07
101	0xb51ca6a6	-5.8357034e-07
102	0x3496882a	2.803875e-07
103	0x38a4c7de	7.8573576e-05
104	0xb7311899	-1.0555749e-05
105	0x381ab0fc	3.688129e-05
106	0xb6a6394d	-4.953856e-06
107	0xb7903670	-1.7191487e-05
108	0xb8e484f1	-0.000108966495
109	0xb6c59d7a	-5.88939e-06
110	0x380192c1	3.0892672e-05
111	0x3305eaae	3.1179916e-08
112	0x38344cce	4.2986874e-05
113	0xb2b8fcce	-2.1535381e-08
114	0x37bd2630	2.2548338e-05
115	0x37417a6c	1.15322e-05
116	0x3717ac34	9.0403955e-06
117	0x32c41a8c	2.2829475e-08
118	0xb2f56f29	-2.8572304e-08
119	0xbef967d6	-0.48712033
120	0x3d3eaf29	0.046553764
121	0x3d73dc3a	0.059536196
122	0x3d2fe393	0.04294164
123	0x3d5c4997	0.05378112
124	0x3d90db9d	0.07073138
125	0x3e14a85a	0.14517346
126	0x3d5f9264	0.05458297
127	0x3d1da847	0.03849056
128	0xb6a11f24	-4.801799e-06
129	0x3d798759	0.060920093
130	0x36858be6	3.979995e-06
131	0x3d48059b	0.04883347
132	0x3d331adc	0.043726787
133	0x3d37c642	0.044866808
134	0xb8893b1f	-6.543681e-05
135	0x357d558c	9.437433e-07
136	0xbe812045	-0.25219932
137	0x3d0900a6	0.033447884
138	0x3cb79d43	0.022413855
139	0x3d8c9fe0	0.06866431
140	0x3cdc6ce6	0.026907396
141	0x3c950652	0.01819149
142	0x3d4dea00	0.050271988
143	0x3cd5f231	0.026116462
144	0x3d7047df	0.05866229
145	0x37bf79c8	2.2825683e-05
146	0x3dcf0244	0.10107854
147	0x38747cd7	5.82904e-05
148	0x3d703d2b	0.058652084
149	0x3d283507	0.041066196
150	0x3d1f6296	0.03891238
151	0x389cfbb3	7.485542e-05
152	0x376bb2f4	1.4048757e-05
153	0x3850df5b	4.979908e-05
154	0x380b6f6e	3.324396e-05
155	0xb7435d5d	-1.1644644e-05
156	0xb7e18369	-2.6883283e-05
157	0xb733b751	-1.0711913e-05
158	0xb77629e3	-1.4672495e-05
159	0xb86943ce	-5.5614677e-05
160	0xb73519d3	-1.0794453e-05
161	0xb7d701f4	-2.5630907e-05
162	0xb3bb2483	-8.7145075e-08
163	0xb8988b7a	-7.273904e-05
164	0xb3bdbc6b	-8.8352714e-08
165	0xb7866ac1	-1.6023756e-05
166	0xb75d0cc7	-1.3175601e-05
167	0xb74f7b80	-1.2366916e-05
168	0xb568d418	-8.673537e-07
169	0x31010000	1.877197e-09
170	0xb623377e	-2.4321193e-06
171	0xb84e9808	-4.9255817e-05
172	0x36273e3e	2.492117e-06
173	0x36a5991d	4.935208e-06
174	0x364fb043	3.0948001e-06
175	0x35b4ecaa	1.3479923e-06
176	0xb6a098e8	-4.786172e-06
177	0x3649846c	3.0028414e-06
178	0x368e6e23	4.2447514e-06
179	0x32872340	1.5732098e-08
180	0x37594d46	1.29521995e-05
181	0x31be3a78	5.536375e-09
182	0x36c6c584	5.9238537e-06
183	0x36876aa3	4.0357277e-06
184	0x36846f3a	3.946855e-06
185	0xb3045e0c	-3.081918e-08
186	0xb1e01b96	-6.522394e-09
187	0xbf4bbadb	-0.79581994
188	0x3ede8ee7	0.434684
189	0x3ef2fc86	0.47458285
190	0x3e557af6	0.20847687
191	0x3ede1f25	0.43383136
192	0x3f099fbe	0.5375937
193	0x3cee59f6	0.029095631
194	0x3ee15266	0.44008178
195	0x3e5574ce	0.20845339
196	0xb96ec791	-0.00022771793
197	0x3df1ff68	0.11816293
198	0xb93c7a81	-0.00017974713
199	0x3ea54e67	0.3228638
200	0x3eaa012d	0.33204022
201	0x3eb1a384	0.34695065
202	0xb8ff425d	-0.00012171709
203	0xb95cac6b	-0.00021045066
204	0xb7525c09	-1.2538404e-05
205	0xb8445030	-4.6804722e-05
206	0xb8f27fc2	-0.00011563256
207	0x38fde8f5	0.00012107372
208	0xb8cddcc6	-9.816284e-05
209	0xb907f359	-0.00012965257
210	0x3984b671	0.0002531293
211	0xb8d49506	-0.000101367055
212	0x38c6cae0	9.479164e-05
213	0x352d077d	6.445842e-07
214	0x39e77fd2	0.00044154987
215	0xb43fd5da	-1.786606e-07
216	0x37cbddef	2.4302832e-05
217	0xb7f088bb	-2.86739e-05
218	0xb82b0d45	-4.0781935e-05
219	0x359a3123	1.1488195e-06
220	0x3367f4fc	5.400669e-08
221	0xb4771f60	-2.3015082e-07
222	0x3988cd4f	0.00026092908
223	0xb799f349	-1.835231e-05
224	0xb6a5eda8	-4.94505e-06
225	0xb7a45006	-1.9587587e-05
226	0xb7828a84	-1.5561709e-05
227	0x383a4e3e	4.4418724e-05
228	0xb7a31976	-1.944297e-05
229	0xb6ac115a	-5.1280194e-06
230	0xb4a5b969	-3.086855e-07
231	0x36b73ee1	5.461145e-06
232	0x34c29c36	3.6248974e-07
233	0xb796a2b5	-1.795716e-05
234	0xb79c0ef1	-1.8603607e-05
235	0xb7a139d6	-1.9219628e-05
236	0x357d8082	9.443685e-07
237	0x3503b397	4.906264e-07
238	0xbea0c3e4	-0.31399453
239	0x3ccb6016	0.02482609
240	0x3cc6848f	0.02423313
241	0x3da5cbda	0.08095522
242	0x3cf69008	0.030097976
243	0x3c92ac5f	0.017904459
244	0x3dc7ae5e	0.09750055
245	0x3cee4ecb	0.029090306
246	0x3d8c8f4b	0.068632685
247	0x371d2666	9.36687e-06
248	0x3e04a595	0.1295379
249	0x38bef0a5	9.1047295e-05
250	0x3d8d28bb	0.06892534
251	0x3d428a46	0.04749515
252	0x3d37e76d	0.04489844
253	0x38e94af0	0.00011124264
254	0x3795e053	1.7866643e-05
255	0x3e79a3a6	0.24378833

decoder.0.bias f4 [128]
0	0x3c3841ca	0.011246154
1	0x3751423d	1.2472793e-05
2	0xbcb4cff3	-0.022071814
3	0xb4f6e06c	-4.598436e-07
4	0x37d9eb0a	2.5977864e-05
5	0x37d54454	2.5423396e-05
6	0x34e79154	4.3132843e-07
7	0x3bcf2f2c	0.006322762
8	0x3ba4ea69	0.0050328267
9	0xb6c233fa	-5.7877014e-06
10	0xb5144a5c	-5.5242504e-07
11	0x3d523380	0.051318645
12	0xb813ab04	-3.5206802e-05
13	0xb6e56390	-6.8363224e-06
14	0x3bc3ee35	0.005979324
15	0xbbe9c171	-0.0071336557
16	0x3ce6d297	0.028176589
17	0xb52df2aa	-6.4800645e-07
18	0xb20c2480	-8.157372e-09
19	0x361b9614	2.3184157e-06
20	0x3c741fba	0.014900142
21	0xbc9361ac	-0.01799091
22	0x37a8136f	2.003621e-05
23	0xb6ccf504	-6.1081973e-06
24	0x3c5b8957	0.013399444
25	0xb74e8eeb	-1.23118325e-05
26	0x3711cdaa	8.690558e-06
27	0x3d7fe3b7	0.062473025
28	0xb7977775	-1.805623e-05
29	0x3a3badce	0.0007159383
30	0xbc21a74d	-0.009866548
31	0xb79dc9fd	-1.8809917e-05
32	0x3b65c7ee	0.0035061794
33	0x35d9d400	1.622946e-06
34	0x35e3d4b2	1.697472e-06
35	0xb51514e2	-5.5537214e-07
36	0xb6c3da7e	-5.8368887e-06
37	0x3b60b733	0.0034288883
38	0x35c00016	1.430514e-06
39	0xb4ea1c08	-4.3606292e-07
40	0x3c39e78b	0.011346708
41	0x352bf4c9	6.4058673e-07
42	0x360f26f3	2.1331332e-06
43	0x369c3ac7	4.656005e-06
44	0x37d8d47b	2.584815e-05
45	0xb7df8e5b	-2.6649961e-05
46	0xb68f7b2a	-4.2760703e-06
47	0xbd08ba81	-0.03338099
48	0x356dec40	8.863317e-07
49	0x3ca19bd4	0.019727625
50	0x35bfb896	1.428433e-06
51	0x3c02358b	0.007947336
52	0xb7dbb71b	-2.61921e-05
53	0x35dcb99e	1.6445299e-06
54	0xb70682ce	-8.017478e-06
55	0x3c291a63	0.0103212325
56	0xbc8b9652	-0.017039452
57	0xba944cff	-0.001131445
58	0xb6953804	-4.447067e-06
59	0xbc1b0bb8	-0.009463243
60	0xbb5c8ede	-0.0033654491
61	0x362c7dab	2.5703146e-06
62	0xb5690a35	-8.6814117e-07
63	0xb4e8416e	-4.3260974e-07
64	0xb41502fc	-1.3877792e-07
65	0xb5bc8d33	-1.4048186e-06
66	0x3ca3c5a1	0.019991698
67	0x3b02785d	0.0019908168
68	0xb7158c48	-8.913754e-06
69	0x3790d9ac	1.7267499e-05
70	0x350c0e9c	5.2175324e-07
71	0x3d7d1533	0.061787795
72	0xb81f579d	-3.799015e-05
73	0x36408326	2.8686568e-06
74	0x3bb57f3f	0.0055388506
75	0x3644e454	2.933918e-06
76	0xb621906f	-2.407494e-06
77	0xb538c3db	-6.883035e-07
78	0x3cb687a9	0.022281485
79	0xbcc41599	-0.02393608
80	0x3c84fef1	0.016234847
81	0x35849ef8	9.881032e-07
82	0x360882fb	2.034182e-06
83	0x37a5ccf4	1.9764972e-05
84	0x3ba8c6df	0.0051506604
85	0xbd0f4a1e	-0.034982793
86	0xbc819311	-0.015817197
87	0xbca53b05	-0.020169744
88	0xbcf04bb0	-0.029332966
89	0x3b17a01b	0.0023136202
90	0xbc1c9d86	-0.009559041
91	0x3c880d4d	0.016607905
92	0x39c38b26	0.00037296972
93	0xb5313dc4	-6.602752e-07
94	0xbd0d0a71	-0.034433786
95	0xb6faed68	-7.4782183e-06
96	0x37a29e4b	1.9385616e-05
97	0xbcc6ca19	-0.02426629
98	0x3516411c	5.59741e-07
99	0xbc94808b	-0.0181277
100	0xbbfdf7a8	-0.00775047
101	0xbc85455c	-0.016268425
102	0xbc46ad3c	-0.012126263
103	0x37222993	9.665632e-06
104	0x347e92c8	2.3708992e-07
105	0xb55456f8	-7.910271e-07
106	0x350cb416	5.2416124e-07
107	0x3b52a613	0.0032142445
108	0x356d5bd5	8.8423013e-07
109	0x3aa7a0eb	0.0012789046
110	0x36ecd28f	7.0578603e-06
111	0xb6ff81b6	-7.6146925e-06
112	0xb7f66139	-2.9370758e-05
113	0x3c6e999c	0.0145629905
114	0xba36a40c	-0.0006967194
115	0xb7d797e1	-2.5700721e-05
116	0x3b559045	0.0032587212
117	0x3393fd48	6.8912925e-08
118	0xbc8a3cb2	-0.016874645
119	0x3707b6b5	8.089167e-06
120	0x3b9ed991	0.0048477133
121	0x343691a8	1.700306e-07
122	0x37316c1c	1.0575193e-05
123	0xbcf46c77	-0.029836876
124	0xbcac7801	-0.021053316
125	0xb751d4c1	-1.2506906e-05
126	0xb732b543	-1.065183e-05
127	0xb7c898a8	-2.3912944e-05

decoder.2.weight f4 [128, 128]
0	0x3687cc1d	4.0470754e-06
1	0xb5db1afd	-1.6324626e-06
2	0xb8a7ccff	-8.001364e-05
3	0xb283c1f8	-1.5338614e-08
4	0xb68331ce	-3.9099023e-06
5	0xb6302b98	-2.6251419e-06
6	0xb4872784	-2.517446e-07
7	0x39140232	0.00014115198
8	0x3922fef7	0.00015544506
9	0x344aea08	1.8897856e-07
10	0x31288e88	2.4528237e-09
11	0x3915a3d9	0.00014270785
12	0x36bac3f3	5.5660435e-06
13	0x35934fb7	1.0975554e-06
14	0x39543af9	0.00020239865
15	0x3988aac3	0.0002606717
16	0x39dd73a4	0.00042238564
17	0x34147461	1.3825913e-07
18	0x340a5a04	1.2884999e-07
19	0xb306c3b6	-3.1377304e-08
20	0xb9906654	-0.0002754206
21	0x368e6496	4.2436395e-06
22	0xb6718da4	-3.5994244e-06
23	0x33f4495b	1.1375479e-07
24	0xb90430aa	-0.0001260663
25	0x35d79416	1.6061847e-06
26	0xb5f21aee	-1.8038243e-06
27	0xb8ad11bc	-8.252586e-05
28	0x3626c519	2.4850654e-06
29	0x390ca613	0.00013413308
30	0xb7ac2f29	-2.0525958e-05
31	0x36322cb0	2.6550078e-06
32	0x3941eab8	0.00018493354
33	0x322393c8	9.52145e-09
34	0xb4858897	-2.4872563e-07
35	0x3496fab9	2.8122102e-07
36	0x342bffec	1.601872e-07
37	0xb9c1c8de	-0.00036961486
38	0xb43713a4	-1.7050348e-07
39	0x32ff99ac	2.9755789e-08
40	0xb97bcd84	-0.00024013786
41	0xb3ab9f68	-7.991804e-08
42	0xb557fca2	-8.046137e-07
43	0xb4c912ea	-3.745293e-07
44	0xb642fb91	-2.9054684e-06
45	0x363e855e	2.8389836e-06
46	0x353cbe89	7.031272e-07
47	0xb8fd0efb	-0.000120667704
48	0x328de1b8	1.6517205e-08
49	0xb9b1ecc3	-0.00033936472
50	0xb4c669d7	-3.6957383e-07
51	0x38245467	3.9179253e-05
52	0x3654dba9	3.171832e-06
53	0xb4f1084d	-4.4895788e-07
54	0xb79e15c4	-1.8845203e-05
55	0x393d9e26	0.0001808336
56	0xb6ef5679	-7.132822e-06
57	0xba7a7c03	-0.00095552224
58	0x34bdd51e	3.5359056e-07
59	0xbabcae41	-0.0014395193
60	0x3a5b911c	0.000837581
61	0xb48916db	-2.5534868e-07
62	0x33989554	7.105214e-08
63	0x3284e3de	1.5470444e-08
64	0x327dca00	1.4772468e-08
65	0x34ab5956	3.1916233e-07
66	0xb976d067	-0.00023538024
67	0x37c5f1c5	2.3596813e-05
68	0x35a670b1	1.2400761e-06
69	0xb5dd75b2	-1.6500037e-06
70	0x31ed6818	6.909442e-09
71	0x38bdd0c1	9.051106e-05
72	0xb7db9ba9	-2.617932e-05
73	0xb4d4404e	-3.9534865e-07
74	0xb987cdcd	-0.0002590254
75	0xb529f3d2	-6.331221e-07
76	0xb582d3f6	-9.747444e-07
77	0x332899e6	3.9255518e-08
78	0x39009fd0	0.00012266566
79	0xb7b8b517	-2.2018836e-05
80	0xb980c618	-0.00024561654
81	0x32dd0f24	2.5734671e-08
82	0xb25940e0	-1.2645813e-08
83	0xb619b91e	-2.290653e-06
84	0x3943f316	0.00018687206
85	0x390327c8	0.00012507953
86	0xb9c41ef7	-0.00037407104
87	0xb838aabb	-4.4028024e-05
88	0xb7914049	-1.7315282e-05
89	0x386c8d67	5.6398476e-05
90	0x38ad117f	8.252542e-05
91	0xb9ba2454	-0.0003550375
92	0x3800074e	3.052438e-05
93	0x34a4cdd2	3.0697134e-07
94	0x38d5c6f5	0.0001019369
95	0x3533fabb	6.704756e-07
96	0xb603b8b3	-1.962803e-06
97	0xb7e347d4	-2.7093956e-05
98	0xb401f11e	-1.2101779e-07
99	0xb8832107	-6.2527186e-05
100	0xba3ca65e	-0.00071964215
101	0x36fe9ad6	7.587815e-06
102	0xb8a3f15d	-7.817403e-05
103	0xb5c9b8be	-1.5029434e-06
104	0x3451b98a	1.953214e-07
105	0x343fbd2e	1.7857084e-07
106	0xb364835c	-5.3204857e-08
107	0x398cf4d7	0.000268853
108	0xb3a50784	-7.684778e-08
109	0x35f2c939	1.8088969e-06
110	0xb4c4dce2	-3.6668558e-07
111	0x354e4fb2	7.685695e-07
112	0x368a13a9	4.1150092e-06
113	0xb904d383	-0.00012667295
114	0xb9bccb95	-0.00036009835
115	0x36705f4a	3.5818252e-06
116	0x38d671cf	0.00010225514
117	0x3126d9d8	2.428001e-09
118	0xb888ab68	-6.516912e-05
119	0xb5938f19	-1.0994e-06
120	0x390c072c	0.00013354112
121	0x33e61fe6	1.0716012e-07
122	0x34a7e4dc	3.127269e-07
123	0x38d246ed	0.00010026791
124	0x37b4055b	2.1460166e-05
125	0x35d106fd	1.5573747e-06
126	0x35be2aaf	1.4168526e-06
127	0xb6290c5e	-2.519016e-06
128	0x38857bed	6.365017e-05
129	0x348ede96	2.6611514e-07
130	0x380b45f1	3.320532e-05
131	0xb4c7cc10	-3.7215113e-07
132	0x351cffca	5.848675e-07
133	0xb51b372f	-5.78223e-07
134	0x3400a3fa	1.1980583e-07
135	0xb82daf79	-4.1409836e-05
136	0x38454070	4.7028472e-05
137	0x35ccc3fe	1.5256226e-06
138	0xb1f6fe9a	-7.188487e-09
139	0xb89346c3	-7.0226866e-05
140	0xb5c0e139	-1.4370663e-06
141	0xb39ffbfe	-7.4498516e-08
142	0x3832d14a	4.2633423e-05
143	0x39adebf5	0.00033172933
144	0xb99b6eda	-0.00029646495
145	0x33efc9cf	1.11660135e-07
146	0x35064252	5.00154e-07
147	0xb4902faa	-2.685677e-07
148	0xb8124b30	-3.4879136e-05
149	0x38b3ff4b	8.582937e-05
150	0x35abc0b2	1.2796575e-06
151	0xb4c59ae8	-3.6806819e-07
152	0x395b75e4	0.00020929385
153	0xb4fda586	-4.7245356e-07
154	0xb4f66d6c	-4.5900686e-07
155	0xb8a033c8	-7.6390395e-05
156	0x344bc1e8	1.8976391e-07
157	0xb895be94	-7.1403716e-05
158	0x386bb7e6	5.6199635e-05
159	0x33a6c908	7.766545e-08
160	0xb738a5c4	-1.100585e-05
161	0x328a79d2	1.6120712e-08
162	0xb56439d0	-8.5020747e-07
163	0xb5897bf3	-1.0243369e-06
164	0xb58e4f67	-1.0602934e-06
165	0xb91a4cb4	-0.00014715159
166	0x3420b79e	1.4967961e-07
167	0xb46a1b7e	-2.180295e-07
168	0xb94eb2d8	-0.00019712315
169	0xb25b8074	-1.2776685e-08
170	0xb59bf584	-1.1619854e-06
171	0xb56a986b	-8.739359e-07
172	0x3515df1b	5.5831487e-07
173	0xb56f68e4	-8.9187074e-07
174	0xb53500af	-6.742875e-07
175	0x37ec6114	2.8178598e-05
176	0xb4a19817	-3.0099247e-07
177	0xb7dcb8e8	-2.6312147e-05
178	0xb5980b95	-1.1328253e-06
179	0x397f5da7	0.00024353583
180	0xb525d419	-6.177593e-07
181	0xb563639d	-8.4709046e-07
182	0xb6062fce	-1.9995382e-06
183	0x3680df4c	3.8406924e-06
184	0x37e995d2	2.784553e-05
185	0x3a536494	0.00080639985
186	0xb4fb2e34	-4.678601e-07
187	0xba239bfd	-0.00062412006
188	0xba6d30a1	-0.0009048079
189	0xb58f8e36	-1.0695719e-06
190	0xb42fda36	-1.637753e-07
191	0xb2c8a883	-2.3359695e-08
192	0x3221955e	9.405396e-09
193	0xb3cb768c	-9.474488e-08
194	0xb85d310d	-5.2736188e-05
195	0xb8015ac5	-3.0840532e-05
196	0xb37ba4b8	-5.8590302e-08
197	0x35076267	5.0434613e-07
198	0xb481e033	-2.419125e-07
199	0x37e34a3f	2.7095082e-05
200	0xb47d1a39	-2.3572001e-07
201	0x33cafd3b	9.4524204e-08
202	0xb9f19b66	-0.00046082883
203	0xb5a0def8	-1.1985821e-06
204	0xb5003972	-4.776731e-07
205	0xb40478ec	-1.2337449e-07
206	0xb8a0e3b1	-7.671805e-05
207	0xb9323c26	-0.0001699781
208	0x392dfdc5	0.00016593102
209	0x34b19ca3	3.3082787e-07
210	0x358e6e26	1.0611882e-06
211	0x341a80cf	1.4389228e-07
212	0x393de13f	0.00018108355
213	0xb7533c40	-1.2590608e-05
214	0x34b5be98	3.3852552e-07
215	0x34be9e74	3.5505548e-07
216	0xb971bc45	-0.00023053687
217	0x38a89b86	8.039833e-05
218	0xb95cf6c0	-0.00021072756
219	0x38d8be31	0.000103351085
220	0x36f0960c	7.170025e-06
221	0xb4204d66	-1.4929319e-07
222	0x3910eaa6	0.00013820324
223	0xb57c888a	-9.4076006e-07
224	0x341ca186	1.4587394e-07
225	0x388a37ca	6.590744e-05
226	0xb486bf09	-2.509844e-07
227	0x37897c5b	1.638958e-05
228	0xba11ffd9	-0.00055694353
229	0x37eec1e6	2.8462102e-05
230	0xbaa49244	-0.0012555798
231	0x334b61c8	4.7353552e-08
232	0x3508f2bb	5.101717e-07
233	0xb477de7e	-2.308461e-07
234	0x32a0e8e0	1.873235e-08
235	0xbabba894	-0.0014317208
236	0x346de507	2.2155665e-07
237	0x39b0b246	0.0003370216
238	0x35ad895d	1.2929482e-06
239	0x34c75835	3.7130818e-07
240	0xb45f73d4	-2.0810631e-07
241	0x396a4512	0.0002234171
242	0xb8946665	-7.0762624e-05
243	0xb5882e17	-1.0146204e-06
244	0x385ab102	5.21401e-05
245	0x32c1a864	2.2544732e-08
246	0x37557c00	1.272466e-05
247	0x354ca196	7.623106e-07
248	0xb89d09a4	-7.488139e-05
249	0xb46929f3	-2.1715077e-07
250	0x360aeaa8	2.070019e-06
251	0x3901cc03	0.00012378399
252	0xb60bf720	-2.085646e-06
253	0xb50b6805	-5.1932903e-07
254	0xb4982e61	-2.834595e-07
255	0xb4b727dc	-3.4115408e-07

decoder.2.bias f4 [128]
0	0xb787ddd2	-1.6196547e-05
1	0xb602f890	-1.9516192e-06
2	0x3c522e55	0.012828429
3	0x36c5e30f	5.8974906e-06
4	0xb7a830f4	-2.0049956e-05
5	0x360a6f53	2.0628402e-06
6	0xb5caed13	-1.511917e-06
7	0xb72cb1d4	-1.0293403e-05
8	0xb7dc6d08	-2.6276815e-05
9	0xb746bced	-1.1845707e-05
10	0xb69d27ff	-4.683621e-06
11	0xbc11f153	-0.008907634
12	0xb7a766e5	-1.9955865e-05
13	0xbc310561	-0.010804505
14	0xb5d746c4	-1.6039344e-06
15	0x36894152	4.0905225e-06
16	0xb71922e8	-9.127638e-06
17	0xbb1df3db	-0.0024101648
18	0xb768ed77	-1.3883567e-05
19	0x3bbc847b	0.0057530976
20	0xb58e2f21	-1.0593541e-06
21	0xbc14a1f9	-0.00907182
22	0xb6e9b29a	-6.964733e-06
23	0x37cedf7a	2.4661178e-05
24	0x34a06c14	2.988096e-07
25	0xbc82d5ce	-0.01597109
26	0x3b403867	0.0029330493
27	0xb6e7d949	-6.909632e-06
28	0x35b2d136	1.3322922e-06
29	0xb7baf3c8	-2.2286447e-05
30	0x35b22139	1.3271703e-06
31	0xb52449da	-6.120223e-07
32	0xb786cbf6	-1.6069022e-05
33	0xb70e5a7d	-8.484928e-06
34	0x3c9a4ae2	0.018834535
35	0x3b59d5d8	0.0033239033
36	0xb7669cd9	-1.3745587e-05
37	0x37c44813	2.3398583e-05
38	0xb80b320c	-3.3186792e-05
39	0x3750b521	1.24399385e-05
40	0xba80194b	-0.0009773163
41	0x37926c23	1.7454911e-05
42	0x36e27735	6.7492024e-06
43	0xbb28a938	-0.0025735628
44	0xb7a7edf9	-2.0018766e-05
45	0x3899a767	7.32679e-05
46	0xbb25daf1	-0.0025307501
47	0xbbbbc49b	-0.0057302243
48	0xbc40c873	-0.011766541
49	0x37104ee4	8.601437e-06
50	0xbc5c177c	-0.0134333335
51	0xb7822037	-1.5512209e-05
52	0xb7ccceee	-2.4415054e-05
53	0xbcd05bc8	-0.02543439
54	0xb520ba19	-5.987545e-07
55	0xbc1c502b	-0.009540598
56	0xb6ff4645	-7.6077727e-06
57	0xb9fd6179	-0.00048328543
58	0xbb81254e	-0.0039412146
59	0x3b2104aa	0.002456943
60	0x3b2aa251	0.002603669
61	0x36da20c1	6.5007193e-06
62	0x36dd6950	6.5985732e-06
63	0x38029fda	3.114329e-05
64	0xba9db3d7	-0.0012031746
65	0x374c45bf	1.2175587e-05
66	0x367400f0	3.635938e-06
67	0xb5a49eeb	-1.2265203e-06
68	0x35d7f536	1.6090114e-06
69	0xb66a1f66	-3.4886993e-06
70	0x3750ffe3	1.2457344e-05
71	0xbc120710	-0.008912817
72	0x3626004a	2.4736096e-06
73	0xb6a1b08c	-4.8187267e-06
74	0xbce21425	-0.027597496
75	0x36194af3	2.2842403e-06
76	0x36b148bd	5.283479e-06
77	0xbbed475a	-0.007241172
78	0xb6fe7854	-7.583798e-06
79	0xb741ebdc	-1.1558612e-05
80	0xb7d84063	-2.5779189e-05
81	0x37a65c4f	1.9831727e-05
82	0xb7242bcd	-9.78536e-06
83	0xb7f3b7fb	-2.905353e-05
84	0xb7bcd5e5	-2.2510949e-05
85	0xb7032ece	-7.819106e-06
86	0xb6bcb119	-5.6234535e-06
87	0xbc10d953	-0.008840877
88	0xb6d66be0	-6.3902553e-06
89	0xbb364080	-0.002780944
90	0x3711a4dd	8.681059e-06
91	0x37968d62	1.794723e-05
92	0x3bc011d5	0.0058615007
93	0xb7a8a1de	-2.0102536e-05
94	0xbc09674c	-0.008386444
95	0x3804f2a4	3.169723e-05
96	0x3657f8e1	3.2182363e-06
97	0xb6ffba79	-7.6213005e-06
98	0xb7421cca	-1.1570004e-05
99	0xba3d3d8b	-0.00072189484
100	0x37e40435	2.7181677e-05
101	0xb622d864	-2.4265837e-06
102	0x36a66e0c	4.9599967e-06
103	0xbb49143e	-0.0030682231
104	0xb7ff7b5f	-3.0455818e-05
105	0x375533e6	1.2707873e-05
106	0x36e36bbf	6.7776705e-06
107	0xbba5765d	-0.0050495104
108	0xbad74b51	-0.0016425644
109	0xb6d8e3ee	-6.463836e-06
110	0x3a3b4e0d	0.00071451144
111	0xbc29fa9b	-0.01037469
112	0xbbc8b05f	-0.0061245407
113	0x337b1bd4	5.84658e-08
114	0x37bdfeac	2.2649147e-05
115	0x3bb3564c	0.005472934
116	0x3b5c36b5	0.0033601944
117	0xbc170758	-0.0092180595
118	0x3b139915	0.0022521664
119	0xb66dde54	-3.5445164e-06
120	0xb824c3c1	-3.9282957e-05
121	0x3bed1694	0.0072353575
122	0x3b031be1	0.002000563
123	0xbaab43e4	-0.0013066498
124	0xb858cf52	-5.1691495e-05
125	0xb72a887d	-1.0164568e-05
126	0xb5bea40e	-1.4203849e-06
127	0x37bf62d3	2.2814993e-05
