content/post/crom/code/model.pth (torch, 410405 bytes, 11 tensors)

encoder_0.weight f4 [128, 501]
9.279784e-05 0.00033050805 7.014662e-05 -0.00010272863 -0.00011164084 1.1044616e-05 0.00025082866 0.0006106509
0.0011066255 0.0017506322 0.0024335922 0.003194878 0.004619416 0.005684081 0.006423798 0.007015434
0.007533421 0.007991069 0.008374026 0.008657426 0.00881414 0.008820163 0.00865865 0.008323159
0.007819238 0.007162035 0.006358922 0.005327666 0.0035988307 0.0023009111 0.0010582627 -2.5356276e-06
-0.00083349773 -0.0014660396 -0.0019114584 -0.0021535081 -0.0021262176 -0.001991395 -0.0016605229 -0.0015403038
-0.0018860727 -0.0024310604 -0.0031951547 -0.004259118 -0.005762984 -0.00784181 -0.0100837685 -0.0115637025
-0.01266373 -0.013805969 -0.014910957 -0.01584168 -0.01647863 -0.01673204 -0.016543455 -0.015883215
-0.014746053 -0.013147139 -0.011118334 -0.008703905 -0.0059480085 -0.0028198503 0.0016274204 0.0067595937
0.009841434 0.01279969 0.015578661 0.018072685 0.020187045 0.021839956 0.022964144 0.023510383
0.023452677 0.022793883 0.021573748 0.019879773 0.017861634 0.015744654 0.013738202 0.010711133
0.0068620443 0.004101027 0.0020645647 0.0005101657 -0.00067923253 -0.0015750714 -0.0021693574 -0.0020560562
-0.0013571018 -0.0018238788 -0.0026210488 -0.0036464203 -0.0049968497 -0.006810751 -0.009298455 -0.012870184
-0.017154656 -0.019728616 -0.022196433 -0.024855964 -0.027361793 -0.02942866 -0.0308539 -0.031500883
-0.03128392 -0.030161161 -0.028132167 -0.025237164 -0.021551458 -0.017177384 -0.01223351 -0.0068312366
-0.0005638245 0.007996454 0.013513004 0.01889098 0.023912936 0.028399317 0.03219543 0.035167478
0.037207697 0.038242336 0.038238548 0.03721057 0.035226077 0.032417435 0.029003693 0.02533453
0.021897895 0.017807376 0.012051147 0.007897654 0.004815552 0.0024625084 0.00065172435 -0.0007532257
-0.0018278484 -0.0022586798 -0.001391343 -0.0022875709 -0.003461505 -0.0049363 -0.006852429 -0.009395857
-0.012823159 -0.017600859 -0.023568615 -0.027498621 -0.03144563 -0.035580922 -0.039347995 -0.042339455
-0.04427847 -0.044974077 -0.044295024 -0.04216337 -0.038566533 -0.033574745 -0.027337836 -0.02006125
-0.0119926715 -0.003500672 0.003904513 0.017089263 0.025998237 0.03385567 0.040737208 0.046668023
0.051568422 0.05538921 0.05774444 0.058441296 0.057452295 0.05488998 0.05096778 0.04596881
0.040231284 0.034139846 0.027778994 0.019742588 0.0131005915 0.007886782 0.0037729875 0.000718657
-0.0013176011 -0.0024538296 -0.00293138 -0.0030622256 -0.00031059847 -0.00021191142 -0.0005747056 -0.001666033
-0.0037149221 -0.00684873 -0.011130361 -0.016650135 -0.023827687 -0.031872228 -0.038573753 -0.045148533
-0.051337194 -0.056713894 -0.060876712 -0.06346881 -0.06421764 -0.0629594 -0.059632573 -0.054277103
-0.047036793 -0.03814685 -0.02788717 -0.016556418 -0.00450989 0.011026713 0.02296991 0.034398183
0.044828348 0.053912368 0.061335094 0.06680687 0.07013061 0.0712406 0.07017562 0.06708118
0.062234025 0.05601985 0.048878305 0.041277997 0.0334823 0.024042921 0.015974011 0.0096437875
0.0046740193 0.0010113529 -0.0013784515 -0.0026049425 -0.002936598 -0.002858761 0.00012583683 0.0003132076
-1.8643866e-05 -0.0012992482 -0.003817559 -0.0077178525 -0.013047217 -0.019869182 -0.028610336 -0.038387585
-0.046790205 -0.05507416 -0.0628547 -0.069632106 -0.07491954 -0.07826864 -0.07937686 -0.0780969
00000000: 769c c238 0a48 ad39 ae1b 9338 0370 d7b8
00000010: b820 eab8 444c 3937 a781 8339 1714 203a
00000020: 310c 913a 7875 e53a e77c 1f3b 2961 513b
00000030: 785e 973b 8741 ba3b b97e d23b bae1 e53b
00000040: eada f63b f9ec 023c 3633 093c e0d7 0d3c
00000050: 2f69 103c 7282 103c 03dd 0d3c dc5d 083c
00000060: 431c 003c 81af ea3b 815e d03b b493 ae3b
00000070: 5cda 6b3b e2ca 163b 67b5 8a3a c029 2ab6
00000080: 167f 5aba 2028 c0ba e789 faba df21 0dbb
00000090: 0358 0bbb 1082 02bb e7a5 d9ba 05e4 c9ba
000000a0: 1936 f7ba 6d52 1fbb cd65 51bb 1290 8bbb
000000b0: 6ad7 bcbb ef7a 00bc 6436 25bc af75 3dbc
000000c0: 897b 4fbc 6e32 62bc 164d 74bc 69c6 81bc
000000d0: 31fe 86bc a211 89bc 2486 87bc 841d 82bc
000000e0: 6e99 71bc 1967 57bc ac29 36bc d39a 0ebc
000000f0: 83e7 c2bb 3dcd 38bb 2b4f d53a 957f dd3b
00000100: f73d 213c cab5 513c a43d 7f3c 2b0d 943c
00000110: 4d5f a53c b5e9 b23c 4d1f bc3c d998 c03c
00000120: d41f c03c 3dba ba3c 6ebb b03c e8da a23c
00000130: 9052 923c effa 803c 3216 613c bf7d 2f3c
00000140: 00db e03b e861 863b a64d 073b a4bc 053a
00000150: 860e 32ba a072 ceba c72b 0ebb e6be 06bb
00000160: c8e0 b1ba 380f efba e7c5 2bbb c8f8 6ebb
00000170: 9dbc a3bb b82c dfbb 8c58 18bc 77dd 52bc
00000180: ec87 8cbc e89d a1bc 4bd5 b5bc bc9e cbbc
00000190: d725 e0bc 6014 f1bc 51c1 fcbc 1207 01bd
000001a0: 9123 00bd 8a14 f7bc 6e75 e6bc 2bbe cebc
000001b0: af8c b0bc 96b7 8cbc 0f6f 48bc 91d8 dfbb
000001c0: 9fcd 13ba 8f03 033c a665 5d3c 42c1 9a3c
000001d0: 10e5 c33c afa5 e83c 5bdf 033d c60b 103d
000001e0: 1967 183d ffa3 1c3d 06a0 1c3d 1c6a 183d
000001f0: 3849 103d 25c8 043d 2799 ed3c 5c8a cf3c
00000200: 3763 b33c c6e0 913c 2d72 453c 2965 013c
00000210: c7cb 9d3b 0962 213b 7bd8 2a3a 1f74 45ba
00000220: 6a94 efba 5c06 14bb b95d b6ba 12eb 15bb
00000230: 6bda 62bb b0c0 a1bb 578a e0bb 15f1 19bc
00000240: 3a18 52bc ad2f 90bc f812 c1bc ca44 e1bc
00000250: 22cd 00bd 4dbd 11bd 5d2b 21bd 236c 2dbd
00000260: 575d 35bd bd36 38bd b36e 35bd 7fb3 2cbd
00000270: f1f7 1dbd ac85 09bd 99f3 dfbc 7e57 a4bc
00000280: e97c 44bc 886b 65bb dce2 7f3b c8fe 8b3c
00000290: 41fa d43c 3eac 0a3d 0fdc 263d f826 3f3d
000002a0: 6939 533d ccdf 623d 6f85 6c3d 2460 6f3d
000002b0: 1953 6b3d 51d4 603d 97c3 503d ca49 3c3d
000002c0: 8fc9 243d 39d6 0b3d c690 e33c 35bb a13c
000002d0: dda3 563c 9037 013c 3a44 773b 4164 3c3a
000002e0: 5bb3 acba 6ed0 20bb 651c 40bb 9faf 48bb
000002f0: d2d7 a2b9 8a34 5eb9 d7a7 16ba ca5e daba
00000300: 0d76 73bb 506b e0bb 1e5c 36bc dd65 88bc
00000310: 4832 c3bc 748c 02bd 83ff 1dbd abed 38bd
00000320: f346 52bd d44c 68bd dc59 79bd effb 81bd
00000330: 8a84 83bd dcf0 80bd 4941 74bd ab51 5ebd
00000340: a7a9 40bd df3f 1cbd a273 e4bc 53a1 87bc
00000350: b3c7 93bb 63a9 343c 652b bc3c 1ce5 0c3d
00000360: ee9d 373d 37d3 5c3d 823a 7b3d 0ad2 883d
00000370: a3a0 8f3d 97e6 913d 3cb8 8f3d dc61 893d
00000380: 1be9 7e3d 1275 653d 9e34 483d 1e13 293d
00000390: bc24 093d a9f5 c43c eedb 823c fa00 1e3c
000003a0: 8428 993b 5f8f 843a 28ad b4ba afb7 2abb
000003b0: f073 40bb 0d5a 3bbb 11f3 0339 0336 a439
000003c0: 6665 9cb7 894b aaba 0330 7abb 0ae6 fcbb
000003d0: ffc3 55bc b2c4 a2bc 3960 eabc 4d3c 1dbd
000003e0: 16a7 3fbd 7195 61bd f7b9 80bd 479b 8ebd
000003f0: 6a6f 99bd 4f4b a0bd 5690 a2bd 44f1 9fbd

encoder_0.bias f4 [128]
-0.29262936 -0.0003928683 0.00055932277 0.0030955793 1.112686 -0.29045245 0.0021766347 0.0015644518
-0.2925436 0.0017886399 -0.29148743 -0.0011773142 0.0001853065 0.002447568 -0.0012534225 -0.28858948
-0.28648683 -0.294794 -0.2917874 -0.2814387 -0.29091263 0.0019177842 -0.28881237 -0.2912486
-0.28894547 0.0008777115 -0.29098412 0.0011984525 -0.2842373 0.0014917578 0.0016565359 0.0006899239
-0.2939942 0.0009866923 -0.27721888 -0.0031384763 -0.29195878 0.0020496782 -0.29173794 -0.28792608
0.0039246962 -0.0016311789 -0.2913782 -0.0016813551 0.0027756712 -0.29472327 0.001972569 -0.00043642084
5.240286e-05 0.0019911844 -0.0011387394 0.0028660432 0.20477748 -0.0011083075 -0.0016780639 -0.2924212
-0.0012695541 -0.29104894 0.00235394 -0.00038128553 0.0045128874 0.0036486408 0.0018998298 -0.2940049
-0.28525972 -0.2905382 0.525356 -0.0016386318 0.0005654567 0.0018562787 -0.0005713301 -0.0012698781
0.048995335 0.00070768374 0.0020687666 -0.2913031 -0.2908566 0.000101374455 0.0017839987 -0.0011120887
0.0012424351 -0.2924583 0.0019822803 -0.00018035415 -0.2880609 0.001333539 0.0011158537 0.002893423
-0.0005005111 0.0006435652 -0.29108462 0.0004810193 0.0037428248 0.00035449726 -0.28587168 0.0016154454
-0.2943979 0.0009168509 -0.28936705 -0.00042417774 -0.28926307 -0.29278597 -0.28977972 -0.27864408
-0.19041474 0.0010185352 -0.28176567 0.0026495315 -0.00069081323 -0.0018871189 0.00086426747 -0.00039342727
-0.0015751994 0.0038194133 -0.29253128 0.0013972134 3.2843454e-05 -0.00056517235 0.0017515179 -0.2903006
0.00018525118 0.0014454804 -0.29480898 -0.29233968 0.0013348511 -0.36266625 -0.0008867747 0.0028021731
00000000: 84d3 95be e4f9 cdb9 849f 123a 34df 4a3b
00000010: 7f6c 8e3f 2fb6 94be dfa5 0e3b 4b0e cd3a
00000020: 46c8 95be cc70 ea3a d73d 95be 1c50 9aba
00000030: d64e 4239 6167 203b e149 a4ba 00c2 93be
00000040: 67ae 92be 3def 96be 2865 95be bc18 90be
00000050: 80f2 94be 295e fb3a 37df 93be 891e 95be
00000060: a9f0 93be 3916 663a dffb 94be 6515 9d3a
00000070: 8d87 91be 1687 c33a 1f20 d93a 02dc 343a
00000080: 6886 96be e653 813a a2ef 8dbe e5ae 4dbb
00000090: 9f7b 95be e553 063b ad5e 95be 0c6b 93be
000000a0: bd9a 803b 48cd d5ba 862f 95be ea60 dcba
000000b0: 09e8 353b f8e5 96be 3746 013b 6acf e4b9
000000c0: 24cb 5b38 887e 023b c141 95ba 3ad4 3b3b
000000d0: 30b1 513e a144 91ba 7bf2 dbba 3bb8 95be
000000e0: 2b67 a6ba 5e04 95be 8f44 1a3b 47e7 c7b9
000000f0: d8e0 933b 091e 6f3b b603 f93a cf87 96be
00000100: 900d 92be 6cc1 94be bb7d 063f 5cc7 d6ba
00000110: 283b 143a 614e f33a 50c5 15ba 0a72 a6ba
00000120: 55af 483d da83 393a 2594 073b ae25 95be
00000130: 28eb 94be ff98 d438 10d5 e93a 81c3 91ba
00000140: 34d9 a23a 18bd 95be 25e9 013b 731d 3db9
00000150: b87c 93be 25ca ae3a d641 923a 959f 3d3b
00000160: bb34 03ba eeb4 283a 0b09 95be 5131 fc39
00000170: 2e4a 753b d1db b939 c65d 92be 5abd d33a
00000180: 52bb 96be d358 703a eb27 94be 2c64 deb9
00000190: 4a1a 94be 0be8 95be 025e 94be 70aa 8ebe
000001a0: 15fc 42be 5f80 853a 9743 90be c3a3 2d3b
000001b0: b117 35ba 3459 f7ba 0290 623a ea44 ceb9
000001c0: ec76 ceba 1f4f 7a3b a9c6 95be b422 b73a
000001d0: 64c1 0938 1328 14ba 3093 e53a 48a2 94be
000001e0: fc3f 4239 4676 bd3a 34f1 96be 8cad 95be
000001f0: 2cf6 ae3a 64af b9be 7176 68ba aaa4 373b

encoder_1.weight f4 [128, 128]
1.20226205e-05 0.00067082536 3.8159615e-05 -0.004861994 -0.0009826049 1.1620413e-05 -0.00040777618 -0.00067600637
1.2008684e-05 -0.0001178074 1.1813599e-05 -0.0008177874 0.0018025889 0.0036602148 0.0008118234 1.12915795e-05
1.0914648e-05 1.24326925e-05 1.1863312e-05 1.0077239e-05 1.1706354e-05 -0.0028071443 1.1326562e-05 1.1766089e-05
1.13514225e-05 0.007220958 1.1718766e-05 0.005885698 1.0532154e-05 -0.0045978157 -6.0273414e-05 -0.00051904074
1.2277378e-05 0.0027059098 9.422108e-06 0.0037917828 1.18969565e-05 0.00022376436 1.1856156e-05 1.1170469e-05
0.0005752537 -0.00050011615 1.17918435e-05 -0.00063604314 0.009943844 1.2418066e-05 0.008801198 4.9582195e-05
0.0013370782 0.001661068 0.00033302594 0.0034445554 0.0015861652 -0.0007623097 -0.0012017839 1.19832075e-05
-0.0028415052 1.1731403e-05 -0.0030885863 0.00096822804 0.0047758003 -0.0048737875 0.008282002 1.2279827e-05
1.07104415e-05 1.1633233e-05 -0.0023740164 -0.0013408094 0.00057120447 0.0016852495 -0.003269322 0.00023488891
-0.0012842634 -0.006341429 -0.00037824316 1.1779476e-05 1.16980455e-05 -0.000588475 0.0003001904 -0.0020932069
0.0001073608 1.1989552e-05 -0.001142076 -0.00048284823 1.1196194e-05 0.008302962 -0.004621835 0.0038678374
0.0011816765 -0.0060601933 1.17376885e-05 -0.0029784176 0.0005143401 -0.0015635157 1.080956e-05 0.0084814895
1.2357933e-05 -0.00038347658 1.1426327e-05 -0.0069023413 1.1408333e-05 1.2048399e-05 1.1503776e-05 9.640391e-06
1.7740393e-05 -0.0005811815 1.0133983e-05 0.0031725066 -0.008514919 -0.0026983756 -0.0032570707 0.00056163635
0.0010128629 0.002280202 1.2001947e-05 0.0006762194 -0.00021081582 -0.001769739 0.0062149754 1.1595112e-05
-0.0072310367 -0.0004712439 1.2438419e-05 1.196568e-05 0.0017415812 -0.0020709806 -0.00018496349 -0.0062418836
0.000109593886 0.00016629537 -0.000526971 0.0023537106 -0.0028180918 0.00010707483 -0.00016569016 -0.00013637578
0.00010949011 0.004560579 0.00010827461 -0.0005873753 0.00064831536 0.00068346167 8.976775e-05 0.00010490684
0.00010245278 0.00011208936 0.000108617096 9.652121e-05 0.00010760366 5.4017706e-05 0.00010516711 0.00010799861
0.00010532391 0.010471046 0.00010768902 0.0012780712 9.981359e-05 0.0002020162 0.00049424305 -0.00048316352
0.00011116749 0.000740787 9.151471e-05 0.0018567444 0.00010882209 0.00060889375 0.000108563734 0.00010413603
0.0009254128 -0.0005881899 0.00010814874 0.00025735048 0.011650359 0.00011200719 0.0033047323 -0.0003122429
-0.0003154996 0.008422523 -0.00023919623 0.00052988797 0.012296574 0.00028297343 -0.00017926177 0.00010935074
-0.0034673784 0.00010776459 5.4151176e-05 0.00044817492 0.009000393 -0.0024069415 0.0032050577 0.00011117763
0.00010101859 0.00010717251 -0.0028301994 -7.336107e-05 0.00066682213 0.0009455181 -0.00056261267 0.00041896402
-0.00387223 -3.236833e-05 -0.00037243482 0.00010805649 0.00010753865 -0.0006136334 0.0007674955 -0.0011389932
0.0008718153 0.000109396104 -0.0007136658 -0.00039556107 0.00010429015 0.010002605 0.0031449106 0.0007252068
0.00042073292 0.0012365561 0.000107805135 -0.00033322626 0.00089908234 -0.0007059384 0.00010173301 0.010204375
0.000111631714 -0.00035574168 0.00010581371 0.00038953792 0.00010569118 0.00010977385 0.0001062955 9.3210445e-05
-1.5636655e-05 -0.0008594568 9.6904434e-05 0.0005817225 -0.0043467735 -0.002939514 -0.0019728837 -0.00050091255
0.00043351096 0.001784854 0.00010947923 0.0007176875 -0.0013217414 -0.00022703355 -0.0007444263 0.00010689799
-0.000836752 -0.00042750506 0.00011210749 0.00010925942 0.00013631872 -0.0025612034 4.789682e-05 0.001888599
00000000: c3b4 4937 54da 2f3a 930d 2038 5d51 9fbb
00000010: c0ca 80ba 4bf5 4237 cbca d5b9 0536 31ba
00000020: e878 4937 5e0f f7b8 0533 4637 c960 56ba
00000030: d944 ec3a 37e0 6f3b 8cd0 543a f770 3d37
00000040: 0e1e 3737 0296 5037 8908 4737 6911 2937
00000050: 6866 4437 11f8 37bb 3707 3e37 f866 4537
00000060: fd71 3e37 c99d ec3b b79b 4437 d0dc c03b
00000070: 42b3 3037 46a9 96bb 16ce 7cb8 3c10 08ba
00000080: f0fa 4d37 a255 313b a513 1e37 8f7f 783b
00000090: 0a99 4737 4aa2 6a39 cde9 4637 cd68 3b37
000000a0: 9fcc 163a 3a1a 03ba 95d5 4537 22bc 26ba
000000b0: 81eb 223c 3057 5037 e632 103c 7af6 4f38
000000c0: e640 af3a 31b8 d93a fc99 ae39 0dbe 613b
000000d0: dfe6 cf3a bdd5 47ba 2d85 9dba 7c0b 4937
000000e0: 8c38 3abb fed1 4437 e169 4abb afd0 7d3a
000000f0: 517e 9c3b 4bb4 9fbb 3cb1 073c 7505 4e37
00000100: ffb0 3337 5b2c 4337 6395 1bbb 19be afba
00000110: e2bc 153a 97e3 dc3a 1f42 56bb 834c 7639
00000120: bb54 a8ba c3cb cfbb f04e c6b9 77a0 4537
00000130: b942 4437 e443 1aba e062 9d39 2f2e 09bb
00000140: e426 e138 bc26 4937 b6b1 95ba cb26 fdb9
00000150: 49d7 3b37 2609 083c c372 97bb 8b7b 7d3b
00000160: 7ce2 9a3a 9694 c6bb fdec 4437 8e31 43bb
00000170: c8d4 063a e2ee ccba b55a 3537 f2f5 0a3c
00000180: eb54 4f37 5b0d c9b9 b3b3 3f37 092d e2bb
00000190: 6b66 3f37 7b23 4a37 5700 4137 2abd 2137
000001a0: 34d1 9437 6e5a 18ba 2005 2a37 d4e9 4f3b
000001b0: 2982 0bbc 3bd7 30bb 9474 55bb c73a 133a
000001c0: 0ac2 843a 716f 153b f85b 4937 5144 313a
000001d0: 710e 5db9 96f6 e7ba fea6 cb3b a088 4237
000001e0: 55f2 ecbb 4911 f7b9 9aae 5037 34c0 4837
000001f0: c545 e43a 4ab9 07bb c2f2 41b9 b788 ccbb
00000200: c5d5 e538 935f 2e39 6d24 0aba b640 1a3b
00000210: bcaf 38bb 5d8d e038 1dbd 2db9 1800 0fb9
00000220: 0e9e e538 e970 953b 7d11 e338 17fa 19ba
00000230: b5f3 293a 562a 333a b241 bc38 6e01 dc38
00000240: ebdb d638 8411 eb38 5cc9 e338 6e6b ca38
00000250: 46a9 e138 1291 6238 2a8d dc38 507d e238
00000260: 58e1 dc38 c08e 2b3c 1ad7 e138 f484 a73a
00000270: 0353 d138 50d4 5339 1790 013a 1c51 fdb9
00000280: 9722 e938 6031 423a 96eb bf38 015e f33a
00000290: 6a37 e438 2b9e 1f3a b6ac e338 9b63 da38
000002a0: 6797 723a c230 1aba eacd e238 ffec 8639
000002b0: 26e1 3e3c 67e5 ea38 3594 583b 88b4 a3b9
000002c0: a469 a5b9 9ffe 093c c0d0 7ab9 2ee8 0a3a
000002d0: 9277 493c 0d5c 9439 37f8 3bb9 3b53 e538
000002e0: f53c 63bb acff e138 6220 6338 05f9 ea39
000002f0: 6276 133c c7bd 1dbb f20b 523b 0928 e938
00000300: f1d9 d338 cec1 e038 de7a 39bb 6dd9 99b8
00000310: adcd 2e3a a5dc 773a 4c7c 13ba 66a8 db39
00000320: 3dc5 7dbb 3bc3 07b8 5b43 c3b9 639c e238
00000330: 6086 e138 3edc 20ba c031 493a 454a 95ba
00000340: 898a 643a 966b e538 4d15 3bba 4f63 cfb9
00000350: 59b6 da38 f7e1 233c d81a 4e3b ce1b 3e3a
00000360: d195 dc39 f013 a23a 7115 e238 dfb4 aeb9
00000370: 65b0 6b3a b90e 39ba 7e59 d538 4030 273c
00000380: d21b ea38 d782 bab9 4ee8 dd38 e53a cc39
00000390: 85a6 dd38 6336 e638 f6ea de38 fa79 c338
000003a0: 762b 83b7 2b4d 61ba 2c39 cb38 bc7e 183a
000003b0: 616f 8ebb dca4 40bb 7f4b 01bb ac4f 03ba
000003c0: db48 e339 c3f1 e93a 3798 e538 3123 3c3a
000003d0: 483e adba db0f 6eb9 9a25 43ba 6c2e e038
000003e0: 7a59 5bba c222 e0b9 401b eb38 3422 e538
000003f0: c7f0 0e39 ddd9 27bb d2e4 4838 de8a f73a

encoder_1.bias f4 [128]
-0.00012649398 -0.00043153192 -0.065502964 0.21209535 -0.06560293 -0.0011125738 0.0004934201 -0.06543627
-0.0656094 -0.06547705 -0.06546644 -0.0009784312 -0.116571255 -0.06546088 -2.2033713e-05 -2.2203421e-05
-0.06543083 -0.0007484549 -0.065424286 -0.0007273527 -0.00022491944 -0.0654464 -0.00023789417 0.0005473887
-0.00034194312 -0.06560681 0.00040731323 0.29165572 -0.06556701 0.16525304 0.00016637293 0.00031248364
0.15406369 -0.06560339 -0.06551875 -9.626098e-05 -0.00032841417 -0.00091413065 0.25581163 0.07277046
-0.06560819 -0.0002831803 -0.00059440185 -0.0007998446 -0.0007526717 0.23304011 -0.00035282498 -0.0010502541
0.3083648 -0.06560005 -6.035605e-06 -0.00021713953 3.5116307e-06 -0.065603055 -0.0010730771 0.0003379596
-0.00025716022 -0.049160637 -0.00063098496 0.020735063 0.3413396 9.7243035e-05 -0.00020247049 0.00022949446
-0.0010832297 -0.00026569702 -0.06549098 -0.06548058 0.00033889935 -0.065585785 -0.06561141 -0.0009874849
-0.0004509133 0.30580133 9.52236e-05 -0.0655445 -0.00050311454 -0.0003386316 -0.0003078567 0.00032091668
0.23127355 0.0011416146 -0.00027984133 4.000016e-05 0.32446665 0.17948116 -0.00024295817 -0.06551886
-0.00041203425 -0.06560117 0.30235273 -4.9587397e-05 -0.00027126656 0.0003680747 0.0010636196 -0.065426916
-0.065606885 -0.000890021 -0.00045333986 -0.06559893 0.0007661919 0.00057760073 0.0119997375 -0.0005697732
-0.06546673 -0.06556236 -0.06559492 -0.00040680374 -0.00016199444 0.00043240914 -0.065427236 -0.06554267
-0.00029394278 0.0009943233 -0.00024906726 0.0003715466 0.26129043 0.00025028398 -0.06554271 -0.0002278461
-0.00024767919 -0.0006230985 0.0005280728 0.062092643 0.30795076 -0.00025944825 0.00016697485 -0.0007870169
00000000: 78a3 04b9 3c3f e2b9 6b26 86bd 862f 593e
00000010: d45a 86bd c8d3 91ba dd58 013a 7303 86bd
00000020: 395e 86bd d518 86bd 4513 86bd b43e 80ba
00000030: e9bc eebd 5b10 86bd 0ad5 b8b7 7c41 bab7
00000040: 9900 86bd f533 44ba 2bfd 85bd d0ab 3eba
00000050: 5ad8 6bb9 c308 86bd 3b73 79b9 a27e 0f3a
00000060: d446 b3b9 dd5c 86bd a88c d539 e653 953e
00000070: ff47 86bd 1838 293e 6574 2e39 d8d4 a339
00000080: dfc2 1d3e 125b 86bd b22e 86bd b8df c9b8
00000090: 012f acb9 45a2 6fba bef9 823e ae08 953d
000000a0: 965d 86bd d177 94b9 a2d1 1bba aaac 51ba
000000b0: f14e 45ba 11a2 6e3e 5efb b8b9 aea8 89ba
000000c0: fee1 9d3e 5259 86bd 7485 cab6 f3af 63b9
000000d0: 5ba9 6b36 e55a 86bd 7ea6 8cba 2b30 b139
000000e0: 76d3 86b9 aa5c 49bd af68 25ba 94dc a93c
000000f0: 10c4 ae3e f5ee cb38 424e 54b9 73a4 7039
00000100: 28fb 8dba 404d 8bb9 2320 86bd af1a 86bd
00000110: 4dae b139 d751 86bd 465f 86bd 7f6e 81ba
00000120: 8f68 ecb9 fe91 9c3e c8b2 c738 323c 86bd
00000130: 72e3 03ba 5d8a b1b9 d467 a1b9 b540 a839
00000140: f9d2 6c3e 3ba2 953a abb7 92b9 d8c5 2738
00000150: 7e20 a63e e9c9 373e 96c2 7eb9 c12e 86bd
00000160: 4d06 d8b9 e859 86bd facd 9a3e 10fc 4fb8
00000170: c838 8eb9 26fa c039 2769 8b3a 8cfe 85bd
00000180: e75c 86bd 4c50 69ba 3fae edb9 bb58 86bd
00000190: 45da 483a 216a 173a 8c9a 443c d55c 15ba
000001a0: 6c13 86bd 8f45 86bd a156 86bd 4648 d5b9
000001b0: 0ddd 29b9 f9b4 e239 b7fe 85bd 3c3b 86bd
000001c0: 551c 9ab9 f453 823a 3e95 82b9 24cc c239
000001d0: dcc7 853e 8c38 8339 423b 86bd f9e9 6eb9
000001e0: f0da 81b9 6f57 23ba 5e6e 0a3a db54 7e3d
000001f0: b9ab 9d3e 8e06 88b9 f815 2f39 cf4f 4eba

encoder_2.weight f4 [16, 128]
-0.0021024854 -0.0009729907 -0.00027679052 0.0005317897 -0.00027645077 -0.005561333 -0.0017069947 -0.00027701713
-0.0002764345 -0.00027688776 -0.00027692 -0.004639917 0.0041912966 -0.00027693764 -3.705225e-06 0.005041822
-0.00027703773 -0.0035515775 -0.00027704815 0.0042373203 -0.0017640005 -0.00027697993 -0.00013587766 0.001560135
0.00015997644 -0.00027643872 0.00021787781 0.00043575774 -0.00027658034 -0.008817036 -0.0012027611 -0.005472264
0.00032844595 -0.0002764592 -0.00027674274 0.0013944731 0.0007493428 0.0015414339 0.0004000136 0.012588832
-0.00027642943 -0.0016043659 0.0032505088 -0.000406623 0.0051965984 0.0003823519 0.0016948316 0.0038349072
0.00044254298 -0.00027646165 -0.0006720805 -0.0010587364 -0.00073509495 -0.00027645915 0.001504575 0.0016964531
0.00251599 0.01636141 -0.00068761 -0.004032848 0.0004815283 0.0008821262 -0.0010677729 0.0021263347
0.0024143525 0.0040868167 -0.00027684047 -0.00027687234 -5.8347654e-05 -0.00027650947 -0.00027642277 -0.005973519
0.0012369361 0.00045159197 0.004768716 -0.00027665246 0.000121946825 -0.005241438 -0.0010687592 0.0016410727
0.0003625809 -2.233551e-05 -0.0019661107 -0.0012730233 0.00046482816 0.007344019 -0.0004695754 -0.00027673086
0.004211807 -0.00027645845 0.00044522402 -0.001855779 2.628665e-05 0.0012720725 6.228072e-05 -0.00027705808
-0.00027643662 -0.0046602655 -0.0020141162 -0.0002764655 -0.00021760598 -0.000294114 0.010123143 -0.0031955806
-0.00027692306 -0.00027659684 -0.0002764806 -0.008869125 -2.4229825e-05 -0.0028965469 -0.0002770443 -0.00027666707
-0.0017680957 0.004974532 -0.0010585975 0.0014487866 0.00039955502 0.0019160124 -0.0002766599 -0.0036311036
-0.0032572018 -0.0058717574 0.0014220519 -0.007321042 0.0005011472 -0.0012904431 -0.0008739108 -0.0004774081
0.00022707018 0.004438312 0.000279272 9.893627e-05 0.00027880978 0.0013819298 -0.009465358 0.00027956665
0.00027877904 0.0002793845 0.00027943242 0.0011792377 0.003040627 0.00027945286 0.0032601075 4.421492e-05
0.00027959328 0.0021921215 0.0002796242 0.003930775 0.0018902009 0.0002795244 0.0041720555 -0.0071978136
0.0052448893 0.00027879392 -0.0066744485 -0.00025844874 0.00027897276 0.01961015 -0.0075089084 -0.0022190104
0.0010778571 0.00027880256 0.00027919197 -0.004317489 0.0055136443 -0.0073062847 -6.1046645e-05 0.010707149
0.00027878958 0.0019126624 0.0008600006 -0.007706553 -0.0084601715 6.932228e-05 0.0074118227 -0.0043657282
-0.00029434462 0.00027882218 0.002070274 0.002922931 0.0028565999 0.00027880966 -0.005560835 -0.004234349
0.0032667662 0.0066561555 -0.0074087502 0.0008931331 -0.0004561242 0.003983968 0.002877416 -0.0027074146
-0.005042744 -0.00045496112 0.00027931802 0.00027936557 -0.0063359 0.0002788922 0.00027876731 0.00034917638
-0.0076078083 -0.0003326808 -0.003054581 0.00027907375 0.0010798268 -0.0028262457 0.0028908942 -0.0053507937
0.00012576261 0.007803776 0.0022255974 -0.003889321 -0.00039159702 0.011929242 0.0035601102 0.00027919112
0.008753818 0.00027881647 -0.00029647196 0.0006332625 0.0053326804 -0.004755092 -0.0027059151 0.00027961013
0.00027879534 0.0025660805 0.0028221023 0.00027883195 0.006850265 0.0068372707 0.00396785 0.0019373663
0.00027943085 0.00027899232 0.0002788525 -0.0057552527 0.0064078714 0.00081513106 0.00027960888 0.00027907605
0.0018905 -0.004380218 0.002934769 -0.005539154 -7.718499e-05 -0.0060692574 0.00027907683 -0.00092008157
0.003908905 -0.0018325904 -0.006798096 0.013325594 -0.0004514107 0.002343318 0.003001064 -0.007666988
00000000: dac9 09bb 4d10 7fba 321e 91b9 cd67 0b3a
00000010: 98f0 90b9 d83b b6bb 3dbd dfba 9c3c 91b9
00000020: 69ee 90b9 3f2b 91b9 932f 91b9 720a 98bb
00000030: 2557 893b f131 91b9 48a7 78b6 de35 a53b
00000040: 603f 91b9 95c1 68bb c640 91b9 38d9 8a3b
00000050: 0936 e7ba 9e37 91b9 627a 0eb9 727d cc3a
00000060: 59bf 2739 faee 90b9 2176 6439 6a76 e439
00000070: fc01 91b9 5475 10bc f7a5 9dba ad50 b3bb
00000080: 4533 ac39 baf1 90b9 c817 91b9 c1c6 b63a
00000090: 8b6f 443a f009 ca3a ebb8 d139 6341 4e3c
000000a0: bbed 90b9 9649 d2ba 7d06 553b 0430 d5b9
000000b0: 3a48 aa3b 6776 c839 1d25 de3a 1153 7b3b
000000c0: 1d05 e839 0ef2 90b9 8f2e 30ba 4cc5 8aba
000000d0: 63b3 40ba b8f1 90b9 2935 c53a 855b de3a
000000e0: 4fe3 243b 5d08 863c ba40 34ba fb25 84bb
000000f0: a275 fc39 7d3e 673a 83f4 8bba fa59 0b3b
00000100: 1d3a 1e3b b4ea 853b e624 91b9 2d29 91b9
00000110: 51ba 74b8 79f8 90b9 d6ec 90b9 82bd c3bb
00000120: b020 a23a a6c3 ec39 e442 9c3b aa0b 91b9
00000130: b4bd ff38 5ec0 abbb 9c15 8cba 4319 d73a
00000140: c918 be39 245d bbb7 ddd9 00bb 93db a6ba
00000150: 2eb4 f339 19a6 f03b 5831 f6b9 3016 91b9
00000160: 3303 8a3b a0f1 90b9 f56c e939 9c3d f3ba
00000170: 2782 dc37 acbb a63a b59c 8238 1b42 91b9
00000180: b2ee 90b9 24b5 98bb 43ff 03bb 92f2 90b9
00000190: 292d 64b9 5033 9ab9 8adb 253c f26c 51bb
000001a0: fc2f 91b9 3304 91b9 99f4 90b9 ce4f 11bc
000001b0: 2741 cbb7 fed3 3dbb 4240 91b9 a00d 91b9
000001c0: 72bf e7ba 6601 a33b a3c0 8aba 36e5 bd3a
000001d0: 5e7b d139 b522 fb3a aa0c 91b9 cff7 6dbb
000001e0: c776 55bb df67 c0bb 2564 ba3a 5ae5 efbb
000001f0: 6b5f 033a 1624 a9ba 2917 65ba a14c fab9
00000200: b019 6e39 426f 913b 416b 9239 017c cf38
00000210: 372d 9239 df21 b53a 9714 1bbc cd92 9239
00000220: 1729 9239 5a7a 9239 c980 9239 a790 9a3a
00000230: 4245 473b 8783 9239 87a7 553b 6973 3938
00000240: 6096 9239 b2a9 0f3b 869a 9239 bbcd 803b
00000250: 9ec0 f73a 218d 9239 bdb5 883b a3db ebbb
00000260: 52dd ab3b 162b 9239 55b5 dabb 6780 87b9
00000270: 1743 9239 77a5 a03c 4a0d f6bb d16c 11bb
00000280: e246 8d3a 3f2c 9239 8360 9239 b979 8dbb
00000290: cdab b43b 8f69 efbb 2b06 80b8 0a6d 2f3c
000002a0: 812a 9239 4db2 fa3a aa71 613a 4187 fcbb
000002b0: 889c 0abc 1e61 9138 e0de f23b 620e 8fbb
000002c0: 4452 9ab9 e12e 9239 6fad 073b a58e 3f3b
000002d0: cb35 3b3b 332d 9239 aa37 b6bb 4bc0 8abb
000002e0: 3e17 563b e11b da3b 1ac5 f2bb 2621 6a3a
000002f0: f423 efb9 f28b 823b 0893 3c3b e16e 31bb
00000300: 9a3d a5bb d987 eeb9 6e71 9239 d077 9239
00000310: 629d cfbb 4738 9239 8427 9239 a911 b739
00000320: ec4a f9bb a96b aeb9 5d2f 48bb a550 9239
00000330: fa88 8d3a 8938 39bb 2875 3d3b b655 afbb
00000340: 25df 0339 d1b6 ff3b 54db 113b fae3 7ebb
00000350: 434f cdb9 de72 433c bd50 693b 6660 9239
00000360: 2d6c 0f3c 1d2e 9239 cb6f 9bb9 8701 263a
00000370: c4bd ae3b 9ad0 9bbb b955 31bb a398 9239
00000380: 472b 9239 b02b 283b 05f3 383b 3130 9239
00000390: 3078 e03b 2f0b e03b bd04 823b 3aef fd3a
000003a0: 9380 9239 b745 9239 f332 9239 8f96 bcbb
000003b0: 1ff9 d13b 85ae 553a 7898 9239 f450 9239
000003c0: a7ca f73a ef87 8fbb 4155 403b cb81 b5bb
000003d0: 60de a1b8 9fe0 c6bb 0f51 9239 a131 71ba
000003e0: 4616 803b 8833 f0ba 90c2 debb 9853 5a3c
000003f0: 52ab ecb9 5a92 193b 80ad 443b 5b3b fbbb

encoder_2.bias f4 [16]
0.00020843683 -5.3065094e-05 0.000979141 0.009905317 0.0011726207 -0.34452885 8.1166145e-05 0.29714212
0.00087355456 -0.002067314 -0.28755787 -0.0008460728 0.00430117 0.005210889 0.0067414893 -0.014665836
00000000: d68f 5a39 3692 5eb8 8556 803a e949 223c
00000010: 9fb2 993a 1666 b0be be37 aa38 0323 983e
00000020: 41ff 643a c67b 07bb c93a 93be fcca 5dba
00000030: d4f0 8c3b 1bc0 aa3b b6e7 dc3b f948 70bc

decoder_0.weight f4 [128, 17]
0.0009293685 -0.012359204 -0.007944341 0.008691286 -0.029602518 0.011203497 -0.00034378757 -0.0071922303
0.0008193941 -0.0070244754 -0.007966542 0.0010972846 -0.008284202 0.008701514 -0.0074801696 -0.028636277
0.0010790533 -0.04246201 -0.0003941748 -0.0017955104 0.0005468905 -0.00091386767 -0.00027544756 0.07396288
-0.0021722724 -0.054400355 0.00055032433 0.00080011913 0.06492254 0.00010917917 0.009517608 -7.452466e-05
-0.002767395 -0.008826947 -0.1747714 -0.034580126 -0.04394921 0.022400318 -0.0041986243 -0.018533427
-0.009656387 -0.04842826 0.014460819 -0.016068056 0.014660178 -0.01139692 -0.006145557 -0.010813156
-0.009896013 -0.01958713 0.020198984 -0.00050218095 0.0019077809 0.005537338 0.005469495 0.021622205
0.012368939 -0.0007641976 0.0068397587 0.0010696714 -0.01304442 -0.007215298 0.0018915442 0.0044803885
-0.021416126 0.009746782 0.04175773 0.014158664 0.0002762295 -0.010547811 -0.0072044134 0.016809005
-0.0135528715 0.011342914 1.7314171e-06 -0.0053903204 6.0829254e-05 -0.0019054168 0.005477415 0.00031014843
-0.011502005 -0.013729824 -0.01314048 -0.021808142 -0.006577159 0.0005817986 -0.0179678 0.01745632
-0.036622554 0.003317307 -0.026213419 -0.000477676 0.016615892 0.0008762284 -0.003933981 0.018200941
5.874245e-05 0.014769418 0.016865207 0.0021732738 0.00053001096 -0.015687307 0.0010045585 -0.005976385
-0.007388342 0.02415127 -0.051057946 0.013538173 -0.0016632153 -0.006682777 0.002975805 0.022828687
-0.0020719788 0.0038460472 -0.018121755 0.0035673256 -0.01636601 -0.045330267 -0.0006911046 0.00015233348
-0.00053405314 0.0033758627 0.012596442 -0.037827194 0.0056806584 -0.00032201264 0.003129619 0.00039634193
0.016061964 -0.013831695 0.00051551167 -0.0057485006 0.024303759 -0.011685718 -0.03446785 0.002653305
-1.616195e-05 0.0030923118 -0.023787167 0.020148957 0.017026985 -0.013057972 -7.681061e-07 -0.023401141
0.0008874508 0.015983555 -0.013418619 0.0016990923 -0.0014885402 0.0031310474 0.023844222 0.013929949
0.0017557855 0.39934286 0.005271806 0.0005169731 0.0041502016 0.016862279 0.0056135035 0.08150695
0.0006512383 0.07707838 0.009653222 -0.14959751 0.096466035 -0.0034307244 0.032386567 -0.037403386
-0.75314724 -0.013592431 -0.04487174 -0.00041905747 -0.0018673528 0.00055912236 -0.00096539437 -0.0002930991
0.071545236 -0.0022523932 -0.05289955 0.00056262856 0.00095455226 0.06280676 0.000116644864 0.009524853
-9.787426e-05 -0.0028494166 -0.009181957 -0.0007431696 0.0058953767 0.010788519 0.0014498495 0.0037171883
0.014484276 0.0004999952 0.0118249925 0.00071776466 -0.009552679 -0.01093532 0.001033221 0.0034065458
-0.025750702 0.008909208 0.020203296 0.01748733 0.00085025607 -0.008395813 -0.0018448522 0.013031007
-0.03787408 0.011478513 -0.0007918128 -0.0029735984 0.00039067 -0.0004999465 -0.010756293 0.0010309131
-0.0074101975 0.008427985 -0.008648954 -0.039595604 0.0052065817 -0.00045917137 0.0033694305 0.004237152
-0.009784312 -0.018805174 -0.01134343 -0.013645641 0.004108434 0.0057007773 0.022997228 0.011419408
0.020435385 0.0028706784 0.035313316 0.017558353 0.02120569 -0.011669205 0.0010722212 -0.01842583
-0.016752958 0.022142055 -0.029979387 0.008471967 -0.00019126339 -0.016041683 0.002198069 -0.004981256
-0.004471026 0.002174805 -0.011641747 -0.011182844 -0.016059805 -0.03606443 -0.0073001073 -0.004279459
00000000: dda0 733a 427e 4abc fb28 02bc e565 0e3c
00000010: fb80 f2bc df8e 373c 633e b4b9 cdac ebbb
00000020: 9bcc 563a 922d e6bb 1986 02bc c3d2 8f3a
00000030: 76ba 07bc cc90 0e3c 361c f5bb a096 eabc
00000040: 056f 8d3a a5ec 2dbd 3fa9 ceb9 5557 ebba
00000050: 335d 0f3a 9f90 6fba f269 90b9 da79 973d
00000060: af5c 0ebb e8d2 5ebd a443 103a 16bf 513a
00000070: 1cf6 843d 1ff7 e438 beef 1b3c 1f4a 9cb8
00000080: 2f5d 35bb e69e 10bc 46f7 32be e4a3 0dbd
00000090: 1604 34bd df80 b73c 9d94 89bb 6ad3 97bc
000000a0: d335 1ebc b65c 46bd 12ed 6c3c 28a1 83bc
000000b0: 3e31 703c 26ba 3abc ab60 c9bb aa29 31bc
000000c0: e322 22bc 3075 a0bc 5778 a53c cba4 03ba
000000d0: 810e fa3a 8f72 b53b 7339 b33b 0d21 b13c
000000e0: 17a7 4a3c 6f54 48ba 0e20 e03b 3734 8c3a
000000f0: 43b8 55bc 4e6e ecbb b1ed f73a 39d0 923b
00000100: df70 afbc f7b0 1f3c 270a 2b3d bef9 673c
00000110: e5d2 9039 bad0 2cbc 0013 ecbb 0ab3 893c
00000120: dd0c 5ebc a1d7 393c 0a63 e835 49a1 b0bb
00000130: ea22 7f38 2ebf f9ba e37b b33b 6b9b a239
00000140: e872 3cbc 0ef3 60bc 2b4b 57bc fda6 b2bc
00000150: 3585 d7bb d883 183a 3531 93bc 8e00 8f3c
00000160: 8801 16bd 2d67 593b 86bd d6bc 9670 fab9
00000170: 0d1e 883c b1b2 653a a0e8 80bb 241a 953c
00000180: 3a62 7638 6efb 713c e728 8a3c 7c6d 0e3b
00000190: 6ff0 0a3a ab82 80bc 64ab 833a 8dd5 c3bb
000001a0: e819 f2bb e2d8 c53c 2322 51bd 37cf 5d3c
000001b0: 3f00 daba 32fb dabb b905 433b 3a03 bb3c
000001c0: 09ca 07bb f70d 7c3b 1374 94bc cbc9 693b
000001d0: 0312 86bc 3bac 39bd 3f2b 35ba b5bb 1f39
000001e0: b3ff 0bba 943d 5d3b 4f61 4e3c b0f0 1abd
000001f0: d124 ba3b ced3 a8b9 4b1a 4d3b 1dcc cf39
00000200: 6194 833c 559e 62bc 6723 073a eb5d bcbb
00000210: ad18 c73c 7475 3fbc 292e 0dbd 12e3 2d3b
00000220: 8693 87b7 62a8 4a3b 4edd c2bc 6d0f a53c
00000230: 2d7c 8b3c 1bf1 55bc d92f 4eb5 c0b3 bfbc
00000240: d1a3 683a f2ef 823c c4d9 5bbc 14b4 de3a
00000250: 1f1b c3ba 4232 4d3b f554 c33c 713a 643c
00000260: 6322 e63a ab76 cc3e 1dbf ac3b 7a85 073a
00000270: 6afe 873b c322 8a3c 7bf1 b73b 1eed a63d
00000280: ddb7 2a3a 45db 9d3d 8c28 1e3c 1730 19be
00000290: fc8f c53d 01d6 60bb c7a7 043d 4b34 19bd
000002a0: 42ce 40bf cab2 5ebc 6ecb 37bd f1b4 dbb9
000002b0: f6c1 f4ba 1192 123a 8512 7dba 18ab 99b9
000002c0: 4f86 923d e39c 13bb 33ad 58bd 5d7d 133a
000002d0: eb3a 7a3a d5a0 803d 3c9f f438 210e 1c3c
000002e0: d841 cdb8 47bd 3abb eb6f 16bc 45d1 42ba
000002f0: 012e c13b 54c2 303c e008 be3a 129c 733b
00000300: 754f 6d3c 1c12 033a 9dbd 413c 5f28 3c3a
00000310: d782 1cbc 0e2a 33bc 256d 873a 5b40 5f3b
00000320: 23f3 d2bc edf7 113c 6281 a53c 9741 8f3c
00000330: b8e3 5e3a 988e 09bc f8ce f1ba 0180 553c
00000340: da21 1bbd 5f10 3c3c a891 4fba b4e0 42bb
00000350: d7d2 cc39 d70e 03ba 2a3b 30bc b41f 873a
00000360: 3ed1 f2bb 8815 0a3c 58b4 0dbc 002f 22bd
00000370: f99b aa3b f0bc f0b9 aad1 5c3b cfd7 8a3b
00000380: 614e 20bc 4f0d 9abc cbd9 39bc f791 5fbc
00000390: 0ba0 863b 96cd ba3b af64 bc3c 7818 3b3c
000003a0: 1c68 a73c fe21 3c3b b2a4 103d 89d6 8f3c
000003b0: 8eb7 ad3c 3130 3fbc c689 8c3a c4f1 96bc
000003c0: 803d 89bc 4163 b53c 5597 f5bc 01ce 0a3c
000003d0: e08d 48b9 d969 83bc 7a0d 103b ce39 a3bb
000003e0: af81 92bb 2c87 0e3b 07bd 3ebc 3f38 37bc
000003f0: da8f 83bc 4cb8 13bd bd35 efbb b43a 8cbb

decoder_0.bias f4 [128]
-0.0002646145 -0.0037686215 0.0005579137 -0.00023558765 -0.0004375468 0.00031646594 0.00015056523 -6.114834e-05
5.153108e-05 0.008879405 -0.0035249032 -0.0007926353 -1.9798701e-05 1.0267138e-05 1.52427065e-05 -0.002198601
-0.046158805 -0.078773044 -3.15502e-05 -0.0002355035 -0.00040290094 -0.00027499386 0.000517947 0.00072489976
0.008362077 -0.05560767 -5.0042006e-05 0.00017212865 -0.036972575 -0.0002782598 -0.00012374394 -0.0005021967
0.003640577 -0.00072606455 -0.0004525673 -0.0032815323 -0.05427754 -0.10743498 -0.00018442789 -0.042096082
-0.0006943873 -0.00010565655 -0.00055323145 -0.0004231068 -0.0009358672 0.0003409757 -0.00017393807 -0.0011198792
0.00016842222 -0.011597996 -0.00029263893 -0.00016084337 0.00078911416 0.012842396 0.0012993206 -0.051328044
0.00060319674 0.004450462 -0.0037501468 -0.0038038595 0.0028989883 -0.003161243 -0.0029645339 -0.0024715497
0.013589745 -0.0037500577 -0.00021034357 -0.00016531056 -0.0009886505 6.834248e-05 0.00025532095 7.672635e-05
0.024081968 -0.0004622899 -0.00062679366 6.0961684e-05 -6.678577e-05 -0.002055934 -0.0003262575 8.646745e-05
0.000279886 0.00055217196 -0.01804874 0.0002512168 -0.0017659524 7.991792e-05 -0.1730681 0.015126626
-0.00031023892 0.0018293854 -0.010017775 -4.2853942e-05 0.00076466234 0.0019318488 -0.07331835 0.00056302536
-0.015252044 -0.05009851 -0.113849886 -0.014683995 0.00011918407 0.0005543828 -0.0006530242 -0.00058631477
-0.10579599 -0.0004359595 0.017409557 -0.0012107973 0.00055895577 -0.00020573233 2.1052789e-05 -0.0004723489
-0.00032479345 0.14226708 0.00038967712 -0.0003858364 0.00013683764 0.015466901 -4.66689e-08 -0.00029836275
0.0008997416 -0.00010154142 -9.610102e-05 -0.021075161 0.00038499673 0.001347434 0.0003917924 -0.15342046
00000000: f5bb 8ab9 fafa 76bb f440 123a 1408 77b9
00000010: 8a66 e5b9 57eb a539 0ce1 1d39 c43c 80b8
00000020: 1323 5838 ed7a 113c 1002 67bb dbc8 4fba
00000030: 6315 a6b7 0641 2c37 edba 7f37 6716 10bb
00000040: 0411 3dbd c353 a1bd c554 04b8 7df1 76b9
00000050: 733c d3b9 0d2d 90b9 d6c6 073a 3307 3e3a
00000060: 1801 093c dec4 63bd 32e4 51b8 6f7d 3439
00000070: 8e70 17bd 66e3 91b9 43c1 01b9 daa5 03ba
00000080: bf96 6e3b 5e55 3eba 8e46 edb9 fa0e 57bb
00000090: 2052 5ebd df06 dcbd fc62 41b9 f16c 2cbd
000000a0: 8b07 36ba ee93 ddb8 bc06 11ba 6fd4 ddb9
000000b0: fc54 75ba fcc4 b239 2563 36b9 e9c8 92ba
000000c0: 7f9a 3039 8505 3ebc 556d 99b9 10a8 28b9
000000d0: 8edc 4e3a ea68 523c f74d aa3a 5b3d 52bd
000000e0: d91f 1e3a 2ed5 913b 06c5 75bb 2c4a 79bb
000000f0: f4fc 3d3b db2c 4fbb a048 42bb b9f9 21bb
00000100: 86a7 5e3c 87c3 75bb ac8f 5cb9 3757 2db9
00000110: 9b95 81ba 1753 8f38 99dc 8539 25e8 a038
00000120: 8c47 c53c 805f f2b9 694f 24ba 1cb1 7f38
00000130: 560f 8cb8 d9bc 06bb 8a0d abb9 dc55 b538
00000140: aabd 9239 a2bf 103a f4da 93bc c0b5 8339
00000150: 8877 e7ba 9b99 a738 c438 31be abd5 773c
00000160: 90a7 a2b9 fdc7 ef3a 9821 24bc 12be 33b8
00000170: 9f73 483a 1736 fd3a ee27 96bd fe97 133a
00000180: b6e3 79bc 1834 4dbd 212a e9bd 2495 70bc
00000190: 76f2 f938 0054 113a b62f 2bba ebb2 19ba
000001a0: 91ab d8bd 7e91 e4b9 7d9e 8e3c 9eb3 9eba
000001b0: e386 123a dab9 57b9 859a b037 99a5 f7b9
000001c0: 0a49 aab9 76ae 113e 944d cc39 164a cab9
000001d0: 137c 0f39 e268 7d3c 0071 48b3 926d 9cb9
000001e0: a3dc 6b3a a2f2 d4b8 d889 c9b8 d1a5 acbc
000001f0: 63d9 c939 629c b03a 7c69 cd39 411a 1dbe

decoder_1.weight f4 [128, 128]
0.005178019 0.016578712 0.054408226 0.002090618 -0.0017427813 -0.0012680658 0.0018166482 0.0055559296
-0.0041120155 -0.14961942 0.018935213 0.00091097417 0.0035804545 0.0011965624 -0.0003007073 -0.0026746087
0.014964133 -0.05806613 0.00093258766 -0.00043028386 0.0006724634 0.0028846906 0.026021386 -0.00235852
0.08937873 0.015579732 -0.002822219 0.006782596 0.008739827 0.003458101 -0.008065062 0.00031602648
0.09704604 0.0012773409 -0.010262837 0.01247773 0.015391615 0.015480436 -0.0035295542 0.018211136
-0.00023603575 0.0022726152 0.0025691965 -0.005111486 0.0014173732 0.0038448584 0.0007807103 0.0010561891
0.006291459 0.015504055 0.0009842677 0.0006693737 0.063616365 0.015487686 0.047894236 0.014948086
-0.0002413888 0.0041769915 0.016866503 0.016214421 0.10886158 0.020246979 -0.002284434 0.015240567
-0.040482193 0.01667033 0.0008893935 0.0018236872 0.0012226166 0.0025236455 0.0011757122 0.0024494533
0.013652312 -0.0037723873 0.0010614258 0.005718943 0.004155694 0.2527681 0.0012083639 0.004890207
0.00054738676 0.055859208 0.0153643 0.0016798363 0.35143974 0.0017211882 0.010934192 0.015425236
0.00049805955 -0.00083317445 -1.1351632 -0.0018699542 0.0629134 -0.011184039 0.01513711 0.054374624
0.015437276 0.015437693 0.015504589 0.014840755 -0.0014097514 0.05638167 -0.0033249478 -0.007497415
0.015296103 0.0018707615 -0.017795987 -0.0015850131 0.053411413 0.0032176434 -0.0014979503 0.0022205692
-8.921256e-05 0.001759161 0.0029439826 -0.00703677 2.5006902e-05 -0.0027623093 -0.00096393406 0.004445341
0.049387 -0.0033574384 0.00070487754 0.37702715 0.003955756 0.14952293 0.004422218 0.016130984
-6.232911e-05 0.010886648 0.0042153257 0.002414638 0.0015180776 -0.012602446 0.0012860578 -0.0009499724
6.312688e-05 -0.0073437747 0.01088459 0.0050090556 -0.0011471868 0.003173877 0.002318325 -0.00015161991
0.0037249082 -0.0071261236 0.0014892237 0.004789553 0.010071488 -0.0024209032 0.0048446665 -0.010591325
-0.015797144 -0.009911729 -0.003599926 -0.004751162 0.005483591 -0.0013964302 0.0005635118 0.0019097076
0.0009095963 0.0089151105 0.0003031824 -0.0029702017 -0.0063112453 -0.008963687 -0.003262206 0.005779883
-0.013557094 0.0015497712 0.0034573406 0.00083245384 0.006311541 -0.0007071057 0.00206344 0.0104056215
-0.002354021 -0.006999888 0.0039188885 -0.0027419666 0.0035223966 -0.00684767 0.004656123 -0.0010733482
-0.009393204 -0.003147527 0.010886497 0.010886865 0.001978602 0.010881112 -0.022552485 -0.005930126
-0.0045297975 0.010886486 0.0020585547 -0.0022809736 0.0061618527 -0.0005279604 -0.004538141 0.0028204909
0.005353397 0.00015319737 0.0061980826 -0.001504051 -0.0007271683 0.009457864 -0.0022290398 -0.00035710513
-0.0043628644 0.004087858 -0.00555897 0.0032933592 -0.0009454335 -0.0015028573 0.0025266965 -0.0047609275
0.0034991116 0.019047353 -0.0032939084 -0.00195836 0.0035656502 0.006614002 0.0078082024 0.0042371647
-0.008111796 -0.00817323 -0.010314641 -0.004518227 -0.011863032 0.004025577 -0.0008990358 0.0017418732
-0.010637858 -0.0024883072 8.858004e-05 0.010245453 0.0042856494 -0.00061328645 0.0015546251 0.007882064
-0.008424772 -0.016987097 -0.001447328 0.0009071653 -0.0010282437 -0.0005176092 5.493543e-05 -0.0021259408
0.0045899316 0.0023227877 -0.0016863525 0.000804177 -0.0006364871 0.0025758147 -0.0030129342 0.00024645845
00000000: 5fac a93b 14d0 873c 29db 5e3d c002 093b
00000010: 096e e4ba 3a35 a6ba 991c ee3a 840e b63b
00000020: 16be 86bb d535 19be 051e 9b3c 71ce 6e3a
00000030: 0fa6 6a3b f9d5 9c3a 40a8 9db9 7d48 2fbb
00000040: 1f2c 753c c0d6 6dbd e678 743a b997 e1b9
00000050: 4148 303a 140d 3d3b cd2a d53c 6691 1abb
00000060: 320c b73d 2242 7f3c faf4 38bb 8a40 de3b
00000070: 7e31 0f3c 4fa1 623b 5223 04bc 5bb0 a539
00000080: 13c0 c63d 736c a73a 7525 28bc 656f 4c3c
00000090: 1d2d 7c3c a8a1 7d3c 1850 67bb 852f 953c
000000a0: 5d80 77b9 28f0 143b f75f 283b 417e a7bb
000000b0: 27c7 b93a 05fa 7b3b 95a8 4c3a d36f 8a3a
000000c0: 9528 ce3b b804 7e3c 8b02 813a e978 2f3a
000000d0: 4c49 823d 10c0 7d3c bf2c 443d d1e8 743c
000000e0: 501d 7db9 25df 883b 9f2b 8a3c 1bd4 843c
000000f0: d2f2 de3d fedc a53c 71b6 15bb 92b3 793c
00000100: a8d0 25bd 3790 883c 3026 693a ca08 ef3a
00000110: 3540 a03a bf63 253b 5b1a 9a3a 0287 203b
00000120: f2ad 5f3c 283a 77bb 8a1f 8b3a f965 bb3b
00000130: 7d2c 883b d26a 813e f761 9e3a 083e a03b
00000140: 817e 0f3a a0cc 643d 8cba 7b3c f42d dc3a
00000150: e9ef b33e 7e99 e13a 5325 333c 21ba 7c3c
00000160: 3690 023a 6469 5aba 074d 91bf 4019 f5ba
00000170: bed8 803d 423d 37bc a401 783c edb7 5e3d
00000180: a1ec 7c3c 61ee 7c3c f606 7e3c a326 733c
00000190: 68c7 b8ba 77f0 663d 5ee7 59bb e0ac f5bb
000001a0: 829c 7a3c 5734 f53a e4c8 91bc 37c0 cfba
000001b0: edc5 5a3d 19df 523b df56 c4ba f886 113b
000001c0: a117 bbb8 a693 e63a d5ef 403b b594 e6bb
000001d0: eac5 d137 dc07 35bb 85b0 7cba 39aa 913b
000001e0: 064a 4a3d 7808 5cbb 88c7 383a b409 c13e
000001f0: 499f 813b 8a1c 193e 41e8 903b 2025 843c
00000200: b0b6 82b8 e95d 323c b720 8a3b e73e 1e3b
00000210: 3bfa c63a 7d7a 4ebc f090 a83a 9207 79ba
00000220: fc62 8438 0ca4 f0bb 4855 323c 0123 a43b
00000230: 345d 96ba d200 503b 0aef 173b 29fc 1eb9
00000240: 971d 743b 4282 e9bb 0e32 c33a aff1 9c3b
00000250: e202 253c 04a8 1ebb 02c0 9e3b 3d87 2dbc
00000260: 0369 81bc ce64 22bc bcec 6bbb a3af 9bbb
00000270: b2af b33b 6c08 b7ba a3b8 133a 274f fa3a
00000280: f971 6e3a af10 123c 74f4 9e39 b7a7 42bb
00000290: 90ce cebb 6edc 12bc bcca 55bb 2c65 bd3b
000002a0: 931e 5ebc b121 cb3a 8d94 623b 0839 5a3a
000002b0: 0bd1 ce3b 0f5d 39ba c73a 073b 577c 2a3c
000002c0: eb45 1abb 515f e5bb 056a 803b 91b2 33bb
000002d0: 02d8 663b 6b62 e0bb 6492 983b 97af 8cba
000002e0: f4e5 19bc be46 4ebb 475d 323c d25e 323c
000002f0: 6fab 013b b146 323c fdbf b8bc 8151 c2bb
00000300: b26e 94bb 3b5d 323c d1e8 063b 637c 15bb
00000310: 5ee9 c93b d366 0aba b0b4 94bb fcd7 383b
00000320: 8d6b af3b 9ba3 2039 4919 cb3b 9423 c5ba
00000330: 709f 3eba 28f5 1a3c 1515 12bb d739 bbb9
00000340: 5cf6 8ebb 70f3 853b 0528 b6bb 66d5 573b
00000350: f8d6 77ba 86fb c4ba ef96 253b 8e01 9cbb
00000360: 5a51 653b 3209 9c3c 9dde 57bb d457 00bb
00000370: afad 693b 45ba d83b f3db ff3b ead7 8a3b
00000380: 57e7 04bc 03e9 05bc bdfe 28bc a30d 94bb
00000390: 2a5d 42bc fde8 833b 45ad 6bba 914f e43a
000003a0: 694a 2ebc de12 23bb 0cc4 b938 8bdc 273c
000003b0: a26e 8c3b f5c4 20ba 90c4 cb3a c623 013c
000003c0: 0e08 0abc 8628 8bbc 45b4 bdba d5ce 6d3a
000003d0: 22c6 86ba 2ab0 07ba 786a 6638 5e53 0bbb
000003e0: 2367 963b e939 183b 9a08 ddba 68cf 523a
000003f0: edd9 26ba 00cf 283b a674 45bb 1837 8139

decoder_1.bias f4 [128]
-0.015467914 -0.010899724 -0.0027220228 -0.0021832315 -0.009181677 -0.0042743287 -0.004235778 -0.004715068
0.0010674302 -0.005732104 -0.008401455 -0.0054777395 -0.0055938414 -0.005860679 -0.010821529 -6.645332e-05
-0.03299856 -0.005307631 -0.00710241 -0.008763362 -0.031436972 0.08412068 -0.003752962 -0.0027474775
0.065586746 -0.0024064493 -0.007108576 -0.0069872476 -0.024406172 -0.008161209 -0.06048996 0.1355997
-0.0066162376 0.004319555 0.0013883614 -0.0018132401 -0.013473702 -0.00794431 -0.0027350918 0.045348972
-0.0070711346 -0.007034786 -0.005953586 0.028035268 -0.008343951 -0.16906604 -0.0070505342 -0.3517637
-0.04520334 -0.010980612 -0.0039710924 -0.0039608963 -0.007468826 -0.00680616 0.01532922 -0.007194836
-0.003723353 -0.008809723 -0.0035385452 -0.0024996498 -0.0024377976 0.052213006 -0.00618484 -0.0034809846
0.117908224 -0.009371472 -0.0037247774 -0.0068438067 0.013549127 0.0010761006 0.0013681963 -0.0067933793
-0.013334428 -0.0046421695 -0.00013212032 -0.0052103624 0.07317579 -0.0014900693 0.001422907 -0.008991634
-0.0020489017 -0.0070433845 0.06517797 -0.0039029322 -0.015046638 -0.0014645621 -0.004979912 -0.029606756
0.045473393 0.00034762136 -0.0022001874 -0.0042396425 -0.0023932771 -0.079524286 -0.14382033 -0.0047593014
-0.0058932924 -0.008722667 0.00988125 -0.0043826504 -0.0075526177 0.017526919 -0.008433273 -0.008493225
-0.0028982814 -0.003930657 0.11475412 -0.007043623 -0.01837812 0.00093372364 -0.01015616 -0.003788885
-0.0043573114 -0.007129937 -0.007973243 -0.004291184 0.050417054 -0.0051636156 0.0762907 -8.479082e-06
0.0013905747 -0.0045409016 -0.00548906 0.0001239311 -0.0050824727 -0.001422448 -0.0070059677 -0.006806971
00000000: 226d 7dbc c294 32bc f763 32bb 8c14 0fbb
00000010: bf6e 16bc ab0f 8cbb 48cc 8abb db80 9abb
00000020: 04e9 8b3a 60d4 bbbb 42a6 09bc 9c7e b3bb
00000030: 8b4c b7bb f00a c0bb c84c 31bc db5c 8bb8
00000040: 8029 07bd a3eb adbb 55bb e8bb 3494 0fbc
00000050: 0ec4 00bd 7747 ac3d 41f4 75bb 060f 34bb
00000060: 5852 863d 85b5 1dbb 0fef e8bb 48f5 e4bb
00000070: 74ef c7bc 97b6 05bc 52c4 77bd a6da 0a3e
00000080: 06cd d8bb 0e8b 8d3b aef9 b53a 3eaa edba
00000090: cdc0 5cbc da28 02bc 3a3f 33bb d8bf 393d
000000a0: fab4 e7bb 1084 e6bb 4d16 c3bb 38aa e53c
000000b0: 11b5 08bc a61f 2dbe 2b08 e7bb 5f1a b4be
000000c0: 2327 39bd 06e8 33bc f01f 82bb 68ca 81bb
000000d0: 0ebd f4bb 3506 dfbb 6927 7b3c a9c2 ebbb
000000e0: 7f03 74bb a856 10bc f0e6 67bb 2ad1 23bb
000000f0: 75c3 1fbb 4edd 553d 33aa cabb 3b21 64bb
00000100: de79 f13d cd8a 19bc 651b 74bb 0342 e0bb
00000110: 28fd 5d3c f20b 8d3a 0d55 b33a ff9a debb
00000120: a578 5abc 571d 98bb c789 0ab9 b0bb aabb
00000130: 30dd 953d 6e4e c3ba d680 ba3a a551 13bc
00000140: de46 06bb 31cc e6bb 077c 853d 56c8 7fbb
00000150: 2d86 76bc 8df6 bfba 882e a3bb de89 f2bc
00000160: 4f42 3a3d f340 b639 0531 10bb b3ec 8abb
00000170: 87d8 1cbb a1dd a2bd a345 13be eaf3 9bbb
00000180: 851c c1bb 84e9 0ebc f7e4 213c 569c 8fbb
00000190: f37b f7bb 9d94 8f3c b62b 0abc 2b27 0bbc
000001a0: 18f1 3dbb becc 80bb 3504 eb3d 31ce e6bb
000001b0: b68d 96bc 22c5 743a 0666 26bc f14e 78bb
000001c0: c7c7 8ebb 3fa2 e9bb 34a2 02bc 0f9d 8cbb
000001d0: 1d82 4e3d 8c33 a9bb 4c3e 9c3d 6141 0eb7
000001e0: f243 b63a d8cb 94bb 93dd b3bb 80f3 0139
000001f0: df8a a6bb 6f71 baba 5192 e5bb 030d dfbb

decoder_2.weight f4 [1, 129]
0.047023635 0.37256792 0.00058114505 -4.990583e-05 -0.00056553894 3.894773e-05 -0.0006563382 -0.012513902
-0.0011502828 0.00032804284 5.6542303e-05 -0.2139449 3.8055445e-05 0.046601787 -1.9806464e-05 -9.365794e-05
0.00036236673 -0.2954892 -0.0021685993 -0.0664907 0.0005093381 -0.29865128 -0.2872534 0.0013588311
0.000535751 -0.16554229 0.0002447294 -0.06683243 0.1592039 0.17662923 -0.1707214 0.3206836
0.71998984 -0.045003504 -0.32942364 0.26348278 -0.00026574562 0.00076753803 -0.13965003 -7.712305e-05
0.31442228 -0.06477915 -0.06285553 0.00024716088 -0.47013906 -0.20265372 0.101739384 -0.06368246
0.29398108 0.40754116 -5.471954e-05 -0.000114898685 -0.00029603558 -0.26939294 -0.05221236 -0.6447493
0.19845368 -0.0016566776 -0.315538 -0.0014115282 -0.00026085664 -0.00015655812 0.34118223 -0.032750107
-0.0011839537 0.46493548 -0.0032468801 0.22775348 0.13736188 -0.46312556 0.00023936442 -0.00075291947
-0.05168525 0.0013478458 -4.4416814e-05 0.0002969234 -0.00064206624 -0.13167818 0.000988526 -0.00054329075
0.00071761786 -0.0002419197 -0.06330671 0.26061574 9.164469e-05 0.0024004125 -0.00015577943 -0.00056443835
0.27040905 -0.5380888 -0.36148986 -0.00045121988 0.00033744393 -0.00015793122 0.69334346 -0.6148179
0.0005192543 0.00013582957 -0.003611331 0.6000855 8.098005e-05 0.00056457793 -0.56011134 -0.22047865
-0.23336224 0.000112507325 0.00035952352 0.5423517 0.16890326 -0.0028137579 -0.00021306201 -0.40937033
-0.00029919844 -4.508352e-05 -0.068041265 0.0053894892 0.00096336467 -0.24959166 -0.44178274 -0.12399871
-0.6686249 0.0009633203 0.0011790812 0.0013614183 6.619338e-05 0.00071744993 -0.0003825233 -0.0022944026
-0.05224599
00000000: db9b 403d 39c1 be3e fc57 183a fa51 51b8
00000010: ad40 14ba cf5b 2338 1c0e 2cba 1c07 4dbc
00000020: 16c5 96ba 2afd ab39 d627 6d38 5f14 5bbe
00000030: b99d 1f38 84e1 3e3d 0f26 a6b7 396a c4b8
00000040: 0afc bd39 5c4a 97be 0f1f 0ebb 472c 88bd
00000050: 1a85 053a d2e8 98be e112 93be ce1a b23a
00000060: a471 0c3a eb83 29be 064f 8039 71df 88bd
00000070: 5906 233e 4bde 343e 97d1 2ebe a430 a43e
00000080: 4151 383f 9855 38bd 37aa a8be 37e7 863e
00000090: c653 8bb9 9b34 493a 6b00 0fbe 1fbd a1b8
000000a0: f5fb a03e eeaa 84bd 66ba 80bd 5f95 8139
000000b0: 11b6 f0be 7584 4fbe bd5c d03d f36b 82bd
000000c0: b084 963e 3ca9 d03e a982 65b8 c3f5 f0b8
000000d0: 3935 9bb9 dfed 89be a1dc 55bd 4a0e 25bf
000000e0: 7137 4b3e e024 d9ba 328e a1be 0703 b9ba
000000f0: 96c3 88b9 c029 24b9 70af ae3e fa24 06bd
00000100: e52e 9bba 060c ee3e 9cc9 54bb 3538 693e
00000110: 98a8 0c3e cb1e edbe e6fd 7a39 925f 45ba
00000120: eab3 53bd 33aa b03a 314c 3ab8 62ac 9b39
00000130: 5650 28ba a5d6 06be 6e91 813a a06b 0eba
00000140: 851e 3c3a d3ab 7db9 f3a6 81bd 6d6f 853e
00000150: 5e31 c038 3d50 1d3b b958 23b9 d1f6 13ba
00000160: 0e73 8a3e 30c0 09bf 3315 b9be b591 ecb9
00000170: f5ea b039 579a 25b9 f57e 313f b564 1dbf
00000180: 911e 083a 796d 0e39 15ac 6cbb 349f 193f
00000190: d5d3 a938 2f00 143a 7563 0fbf 28c5 61be
000001a0: 83f6 6ebe e9f1 eb38 6e7e bc39 90d7 0a3f
000001b0: faf4 2c3e 0667 38bb 6669 5fb9 fd98 d1be
000001c0: bcdd 9cb9 1018 3db8 3859 8bbd 509a b03b
000001d0: 4f8a 7c3a f594 7fbe 5931 e2be 09f3 fdbd
000001e0: 002b 2bbf 5587 7c3a 668b 9a3a 9e71 b23a
000001f0: 4dd1 8a38 4013 3c3a 698d c8b9 b05d 16bb
00000200: e4ff 55bd
